pth/model_fold_4.pth (torch, 714118 bytes, 120 tensors)

ScConv.SRU.gn.weight f4 [5]
0	0x3d3bd0d7	0.045853462
1	0x3e20ff8e	0.15722486
2	0x3f0e3af1	0.5555869
3	0xbed810ac	-0.4220022
4	0x3cdca2f8	0.026933178

ScConv.SRU.gn.bias f4 [5]
0	0xbf63ab62	-0.88933384
1	0xbe7a93a9	-0.2447039
2	0xbfd7ca0b	-1.6858534
3	0xbe016bcd	-0.12638779
4	0xbb070949	-0.00206049

ScConv.CRU.squeeze1.weight f4 [1, 2, 1, 1]
0	0xbe2d24b4	-0.16908532
1	0xbf1e3376	-0.61797273

ScConv.CRU.squeeze2.weight f4 [1, 3, 1, 1]
0	0x3e31e73c	0.17373365
1	0xbe9fe119	-0.31226423
2	0xbe93db82	-0.2887841

ScConv.CRU.GWC.weight f4 [5, 1, 3, 3]
0	0xbdf7ac8c	-0.120934576
1	0xbe2114f8	-0.15730655
2	0xbda81d6c	-0.08208737
3	0xbd5caf18	-0.05387792
4	0x3e4b4d2a	0.19853655
5	0x3b1c0200	0.0023804903
6	0x3da28180	0.079348564
7	0xbc030ae0	-0.007998198
8	0x3e8eedc1	0.27915767
9	0x3e9d5b19	0.30733564
10	0x3dbd35ec	0.092388004
11	0xbdc05c30	-0.09392583
12	0x3dd0b890	0.101914525
13	0xbda86550	-0.08222449
14	0x3cda15d0	0.02662173
15	0x3e9a0515	0.30082002
16	0x3e02bab8	0.1276654
17	0x3e9abf23	0.3022395
18	0xbdc424e6	-0.0957735
19	0x3e7c9e62	0.24669793
20	0x3e548e8a	0.207575
21	0xbe714080	-0.23559761
22	0x3d8a8b9c	0.067649096
23	0x3dc4a3c4	0.09601548
24	0x3ea29fad	0.31762448
25	0x3e7a4e26	0.24443874
26	0xbe9053fc	-0.28189075
27	0x3e4d92ae	0.20075485
28	0x3e0f9072	0.14019945
29	0xbda46174	-0.080264
30	0x3ca5fc50	0.020261914
31	0xbe454876	-0.19265923
32	0x3e31398e	0.17307112
33	0x3cec44d0	0.028841406
34	0x3e9da3fb	0.3078917
35	0x3e9c3b51	0.30514005
36	0x3e5ab052	0.21356323
37	0xbe80f460	-0.25186443
38	0x3e641832	0.22274855
39	0xbe902040	-0.28149605
40	0x3e66c866	0.22537383
41	0x3dc6b5f4	0.097026736
42	0x3e9216c1	0.28532985
43	0x3e9099a9	0.28242233
44	0xbe8fe040	-0.28100777

ScConv.CRU.GWC.bias f4 [5]
0	0x3e55e262	0.2088714
1	0xbd7281c0	-0.05920577
2	0xbc28d0a0	-0.010303646
3	0xbe4b59e3	-0.19858508
4	0xbe2377a0	-0.15963602

ScConv.CRU.PWC1.weight f4 [5, 1, 1, 1]
0	0x3ed00c7c	0.40634525
1	0xbed1bf34	-0.4096619
2	0x3f3ca7d0	0.7369356
3	0xbf4b1a24	-0.7933676
4	0xbe104140	-0.14087391

ScConv.CRU.PWC2.weight f4 [4, 1, 1, 1]
0	0x3f586750	0.8453264
1	0x3e08fc20	0.13377428
2	0xbf23a590	-0.63924503
3	0x3e29f960	0.16599035

ScConv.frequencyAttention.Conv_Squeeze.weight f4 [2, 5, 1, 1]
0	0x3e0783f9	0.13233937
1	0x3d514470	0.051090658
2	0xbef5d22f	-0.4801192
3	0xbd51c066	-0.051208876
4	0x3ea35d51	0.31907132
5	0x3e9b7b6b	0.30367598
6	0xbea873f0	-0.32900953
7	0x3e239e4f	0.15978359
8	0x3d916395	0.07099072
9	0x3e304ac8	0.17216027

ScConv.frequencyAttention.Conv_Excitation.weight f4 [5, 2, 1, 1]
0	0x3f1aaf8d	0.6042412
1	0xbe839023	-0.25695905
2	0x3eb4c068	0.35303044
3	0xbe84d7a2	-0.25945765
4	0xbeab6ca1	-0.33481315
5	0xbeeec301	-0.4663315
6	0x3daedfd6	0.08538787
7	0x3ed9f27e	0.4256782
8	0xbf2274c3	-0.63459414
9	0xbcd3b07f	-0.025840996

ScConv.spatialAttention.Conv1x1.weight f4 [1, 5, 1, 1]
0	0x3d97c220	0.07410073
1	0x3e52c494	0.20582801
2	0xbcca7140	-0.024712205
3	0xbdfb6530	-0.12275159
4	0xbee494f4	-0.44644892

SRU.gn.weight f4 [5]
0	0x3f800000	1.0
1	0x3f800000	1.0
2	0x3f800000	1.0
3	0x3f800000	1.0
4	0x3f800000	1.0

SRU.gn.bias f4 [5]
0	0x00000000	0.0
1	0x00000000	0.0
2	0x00000000	0.0
3	0x00000000	0.0
4	0x00000000	0.0

CRU.squeeze1.weight f4 [1, 2, 1, 1]
0	0x3ea64a76	0.32478684
1	0xbf12b19a	-0.5730225

CRU.squeeze2.weight f4 [1, 3, 1, 1]
0	0xbedde81a	-0.43341142
1	0xbeeb9c75	-0.46017805
2	0xbe1feb6c	-0.1561715

CRU.GWC.weight f4 [5, 1, 3, 3]
0	0x3dd889ec	0.105731815
1	0x3df9073c	0.12159583
2	0xbdcde7a0	-0.100539446
3	0xbe88648e	-0.26639217
4	0x3e9e18ff	0.30878446
5	0x3e0f048e	0.13966581
6	0x3e616c92	0.22014073
7	0xbe86b648	-0.26310945
8	0x3d007af8	0.031367272
9	0x3e339d82	0.17540553
10	0x3e2c8d1a	0.16850701
11	0xbdbaf0e0	-0.091279745
12	0xbe9332eb	-0.28749785
13	0x3d8da440	0.06916094
14	0x3e2d405a	0.1691908
15	0x3e151d2e	0.14561912
16	0x3e08b9d8	0.13352144
17	0xbc3f8c00	-0.011691093
18	0xbe889f9b	-0.2668427
19	0xbe673d9e	-0.22582099
20	0x3e25a740	0.16177082
21	0xbd2d3078	-0.04228255
22	0xbdba3c9c	-0.090935916
23	0x3c9b9770	0.01899311
24	0xbe266a90	-0.16251588
25	0x3dceb3cc	0.10092887
26	0x3e1d5222	0.15363362
27	0x3d226208	0.03964427
28	0x3e3c368e	0.18380186
29	0x3e72c3b2	0.23707464
30	0x3e83344d	0.2562584
31	0xbd099678	-0.033590764
32	0x3dbdfacc	0.09276351
33	0xbe1e2546	-0.15443906
34	0x3e95caff	0.29256436
35	0xbe9ca3b2	-0.3059364
36	0x3e193162	0.14960244
37	0xbe9f9694	-0.3116957
38	0xbe024f98	-0.12725675
39	0xbe41f6d6	-0.18941817
40	0xbe2161d6	-0.15759978
41	0x3d9a64d0	0.0753876
42	0xbe851baa	-0.25997669
43	0x3e9d1ac1	0.30684474
44	0xbdeb9ba0	-0.115042925

CRU.GWC.bias f4 [5]
0	0x3e30ef0e	0.17278692
1	0xbdde871c	-0.10865614
2	0x3df8da44	0.12151006
3	0xbe5d52c6	-0.21613607
4	0x3e149478	0.14509761

CRU.PWC1.weight f4 [5, 1, 1, 1]
0	0x3f486c92	0.78290665
1	0x3f7aa9e6	0.97915494
2	0x3d388ca0	0.045055985
3	0x3f695fc8	0.91161776
4	0xbf6886a0	-0.9083042

CRU.PWC2.weight f4 [4, 1, 1, 1]
0	0x3e4e8350	0.20167279
1	0x3f19e68a	0.601174
2	0xbf627084	-0.88452935
3	0xbf582c1c	-0.84442306

bneck.0.depth_conv.weight f4 [5, 1, 3, 3]
0	0xbe02bba5	-0.12766893
1	0x3d3f807e	0.0467534
2	0xbe82bbf8	-0.25534034
3	0x3d709ecc	0.05874519
4	0xbebf9c31	-0.37423852
5	0x3dae85b0	0.085215926
6	0x3cbf3009	0.023338335
7	0xbd80c42e	-0.06287418
8	0xbea7d2b6	-0.32777947
9	0x3e91724b	0.2840751
10	0x3de929a2	0.11384894
11	0xbd1eddb6	-0.03878566
12	0xbe77f7c8	-0.24215615
13	0x3e8ba21b	0.27272114
14	0xbe2c022c	-0.16797704
15	0xbe3c973e	-0.1841707
16	0x3c66a1fb	0.014076705
17	0xbe084bd3	-0.13310175
18	0xbe9f461b	-0.31108174
19	0x3e4cda7f	0.20005225
20	0xbe97a0ed	-0.29614964
21	0x3e3afcc5	0.18260486
22	0xbd50cd8b	-0.05097727
23	0xbd38813c	-0.045045123
24	0xbe5f8ab2	-0.21830252
25	0xbdc19fec	-0.09454331
26	0xbe6dd02e	-0.23223945
27	0xbd5f46eb	-0.054510992
28	0x3df1f1cf	0.118136995
29	0x3e43e9c7	0.19132148
30	0xbeadb5cf	-0.3392777
31	0x3e23cfb5	0.15997203
32	0xbea609ef	-0.32429454
33	0x3cb7479f	0.022373019
34	0x3e161c4d	0.14659233
35	0xbe5e5d7b	-0.21715347
36	0xbde19d12	-0.11016287
37	0x3e78b85b	0.24289076
38	0xbe07795a	-0.13229886
39	0x3e5d50c7	0.21612845
40	0xbe3b63a0	-0.18299723
41	0x3ecd1860	0.4005766
42	0x3ddd3e3b	0.10802885
43	0xbd93f8ef	-0.07225215
44	0xbc73dbd6	-0.014883956

bneck.0.depth_conv.bias f4 [5]
0	0xbc10dd67	-0.008841849
1	0xbe681160	-0.22662878
2	0xbe8adacf	-0.27120063
3	0xbcfa7104	-0.030571468
4	0x3e3291da	0.1743845

bneck.0.point_conv.weight f4 [32, 5, 1, 1]
0	0x3f0b3e9b	0.54392403
1	0xbd9215c7	-0.0713306
2	0x3e216b83	0.15763669
3	0x3e1fccb1	0.15605427
4	0xbe22186c	-0.15829629
5	0x3e44eaea	0.19230238
6	0x3ea0fe2d	0.3144392
7	0xbded2b5c	-0.11580536
8	0x3e9defaa	0.30846912
9	0x3e4343d4	0.19068843
10	0xbeaa6e3e	-0.33287233
11	0xbe30c6e7	-0.17263375
12	0xbec47523	-0.38370618
13	0x3e4d5bc7	0.20054542
14	0xbed9601b	-0.42456135
15	0xbe3eb375	-0.18623145
16	0xbb4ff943	-0.0031734265
17	0xbed6a40d	-0.41922036
18	0xbe29a2b4	-0.16565973
19	0xbd000886	-0.03125813
20	0xbecf882b	-0.40533575
21	0x3e9a4985	0.30134216
22	0xbd61946e	-0.055073194
23	0x3e89fe29	0.2695172
24	0x3e83b14e	0.2572121
25	0xbc59648e	-0.013268603
26	0x3d1185c4	0.03552796
27	0x3c5f83d4	0.01364227
28	0x3d99671b	0.07490369
29	0x3ed1316f	0.40858027
30	0xbe1fb57c	-0.15596575
31	0x3ede2720	0.43389225
32	0xbe898210	-0.26857042
33	0x3e8fada0	0.28062153
34	0x3e75a39b	0.23988192
35	0xbe6528f0	-0.22378898
36	0xbd962cfb	-0.07332798
37	0xbe93d220	-0.2887125
38	0x3e9aaa4f	0.3020806
39	0xbe14bef0	-0.14525962
40	0x3ec83061	0.3909941
41	0x3d74c180	0.05975485
42	0xbd221b65	-0.039576907
43	0x3e882eb4	0.26598132
44	0x3cfd7d5a	0.030943561
45	0xbd915c7a	-0.07097717
46	0xbec47505	-0.3837053
47	0xbb06d0ce	-0.0020571235
48	0x3de98341	0.11401988
49	0xbe016ab9	-0.12638368
50	0x3ec97926	0.3935024
51	0xbdae7009	-0.08517463
52	0xbd26fb94	-0.040767267
53	0x3e5bb580	0.21455956
54	0x3e56c1d3	0.20972376
55	0xbe99f1c6	-0.3006727
56	0xbe026d28	-0.12736952
57	0x3e330222	0.17481282
58	0xbd93af29	-0.072111435
59	0xbd93201b	-0.07183858
60	0x3effb66b	0.4994386
61	0x3e839f2e	0.25707382
62	0xbe35b813	-0.17746
63	0xbdb6f5f1	-0.08933628
64	0xbeab8a47	-0.33503935
65	0xbd6e5cef	-0.058194097
66	0xbeb48dee	-0.35264534
67	0xbd157f46	-0.03649833
68	0xbdf99fa9	-0.12188656
69	0xbeb0fc95	-0.34567705
70	0xbbc56476	-0.006023939
71	0xbea4f067	-0.32214662
72	0xbe860ca0	-0.26181507
73	0x3ec4d79a	0.3844574
74	0x3ee56f92	0.44811684
75	0xbdc54860	-0.09632945
76	0xbe7146b8	-0.23562133
77	0xbe0dc157	-0.13843285
78	0xbe922c74	-0.2854954
79	0xbe986a0d	-0.2976841
80	0xbea4d83f	-0.32196233
81	0x3e615dc5	0.22008426
82	0x3e23d0d4	0.1599763
83	0xbe562ab9	-0.20914735
84	0x3f2dfead	0.6796673
85	0xbf0124f8	-0.50447035
86	0xbe8d7499	-0.2762802
87	0xbe60ab74	-0.21940404
88	0x3e4354ee	0.19075367
89	0xbe412965	-0.18863447
90	0x3ec713dc	0.3888234
91	0xbdb97a54	-0.09056535
92	0x3e7a100f	0.24420188
93	0xbcb19603	-0.021677976
94	0xbe9f0d55	-0.3106486
95	0x3e6b4db3	0.22978859
96	0x3eb8722e	0.36024612
97	0xbed3223f	-0.41237065
98	0x3e2fdede	0.17174861
99	0x3ea0fed5	0.3144442
100	0x3d593773	0.053031396
101	0xbe931304	-0.28725445
102	0xbe89d73b	-0.2692202
103	0x3dd0a7f6	0.10188286
104	0xbeaf3864	-0.3422271
105	0x3ed0aaab	0.4075521
106	0xbe021309	-0.12702574
107	0xbea9a718	-0.33135295
108	0xbc285aef	-0.0102755865
109	0xbe9f4270	-0.31105375
110	0x3e831ac4	0.25606358
111	0xbe91759b	-0.28410038
112	0xbce8da1d	-0.028424317
113	0x3e8ea9a6	0.27863806
114	0xbe0933d6	-0.1339868
115	0xbe8b4492	-0.27200752
116	0x3d26a2b0	0.040682495
117	0x3e840a16	0.25788945
118	0x3e12b7ac	0.14327878
119	0xbd2216ec	-0.03957264
120	0xbe915088	-0.28381753
121	0x3ebc905f	0.36828896
122	0xbe2b893a	-0.16751567
123	0xbd9d3f03	-0.07678034
124	0xbe619163	-0.22028117
125	0x3dca49eb	0.0987738
126	0x3d9be102	0.07611276
127	0x3eb30f21	0.3497248
128	0xbe96aba9	-0.2942784
129	0xbeba3a98	-0.36372828
130	0xbe1d8677	-0.15383326
131	0x3e010954	0.12601215
132	0xbed89f4e	-0.4230904
133	0xbec1fecb	-0.37889704
134	0x3db41f2a	0.087950066
135	0xbdfa3343	-0.12216809
136	0x3dedb889	0.11607463
137	0x3eba5353	0.36391696
138	0x3ecb2b19	0.39681318
139	0xbdc20c2a	-0.09474976
140	0xbdbcdcea	-0.092218235
141	0xbbecc9ef	-0.007226221
142	0xbc93f5fb	-0.018061629
143	0xbe22b8ee	-0.15890858
144	0x3f035c31	0.5131255
145	0xbce5ff38	-0.0280758
146	0xbe5db517	-0.21651112
147	0xbeebb80a	-0.46038848
148	0x3e936763	0.28789815
149	0xbd5978bc	-0.053093657
150	0x3ed54a0d	0.4165806
151	0xbe669a2c	-0.2251975
152	0x3e0e342c	0.1388709
153	0x3d81f456	0.063454315
154	0x3e901e7c	0.28148258
155	0x3eaca302	0.33718115
156	0xbed8c43d	-0.42337218
157	0xbd231d69	-0.03982297
158	0xbdc8dea8	-0.09808093
159	0x3edf6ca3	0.4363757

bneck.0.point_conv.bias f4 [32]
0	0x3e9e3904	0.30902874
1	0xbe67c750	-0.22634625
2	0x3e5c07d7	0.21487366
3	0xbd9c05ed	-0.07618318
4	0x3ebf8ad1	0.37410596
5	0xbe2e85f8	-0.17043293
6	0xbdaf09e4	-0.08546808
7	0x3ec83ac3	0.39107332
8	0x3e80f159	0.25184134
9	0x3e783ae8	0.24241221
10	0x3ca06a2a	0.019581873
11	0xbe86516a	-0.2623399
12	0x3cd08708	0.025455013
13	0xbcb5f660	-0.022212207
14	0xbebdf8f3	-0.37103996
15	0xbe885fcb	-0.26635584
16	0xbe3fbaad	-0.18723555
17	0xbe670dba	-0.2256383
18	0xbea941b1	-0.3305793
19	0x3e513be0	0.20432997
20	0xbe66cd03	-0.22539143
21	0xbdf8209b	-0.12115594
22	0xbec45d88	-0.3835261
23	0x3dccefea	0.100066975
24	0x3bcb4a35	0.0062039145
25	0xba1cfaf8	-0.0005988325
26	0x3d827433	0.063698195
27	0x38bdc40e	9.04874e-05
28	0xbe78c8f4	-0.24295408
29	0xbebc3ba3	-0.3676425
30	0x3d8ea925	0.069658555
31	0xbec3518f	-0.38148162

bneck.0.bn.weight f4 [32]
0	0x3f78c8d7	0.9718146
1	0x3f4f223a	0.809116
2	0x3f439c39	0.7641025
3	0x3f4dd337	0.80400413
4	0x3f56fb54	0.83977246
5	0x3f91c663	1.1388668
6	0x3f43a682	0.76425946
7	0x3f4fb4ec	0.8113544
8	0x3f5f2b9c	0.8717592
9	0x3f5a031e	0.85161006
10	0x3f6faffd	0.9362791
11	0x3f75b67f	0.9598159
12	0x3f52fe4e	0.8241929
13	0x3f5c2d4f	0.86006635
14	0x3f5bccad	0.85859185
15	0x3f4d4eaa	0.80198157
16	0x3f770583	0.96492785
17	0x3f49d2d6	0.78837335
18	0x3f4bf39f	0.7966861
19	0x3f608863	0.8770811
20	0x3f4f0b3f	0.80876535
21	0x3f71e982	0.9449693
22	0x3f642cb4	0.8913071
23	0x3f3a01d3	0.72659034
24	0x3f617fa8	0.8808541
25	0x3f5fab4e	0.87370765
26	0x3f543f46	0.8290905
27	0x3f5fa4ee	0.8736104
28	0x3f6b8743	0.9200327
29	0x3f3a8744	0.7286265
30	0x3f69f6e1	0.9139233
31	0x3f4d6588	0.8023305

bneck.0.bn.bias f4 [32]
0	0x3dc4ebff	0.09615325
1	0xbe2428c3	-0.16031174
2	0xbe272ddc	-0.16326088
3	0xbe2e4a59	-0.17020549
4	0xbe9baa5f	-0.3040342
5	0xbe06bc37	-0.13157736
6	0xbe93d7d6	-0.28875607
7	0xbdd7f6f5	-0.1054515
8	0xbcef9932	-0.029247854
9	0xbe289268	-0.164621
10	0xbd2faa85	-0.04288723
11	0xbdb60f5a	-0.08889647
12	0x3caf94c0	0.021433234
13	0xbd1ac358	-0.03778395
14	0xbe28d878	-0.16488826
15	0xbe6597ab	-0.22421138
16	0xbdf00c4c	-0.117210954
17	0xbb80a97f	-0.0039264555
18	0xbdfd8f86	-0.123808905
19	0xbe63b8ee	-0.22238514
20	0x3d7aa295	0.061190207
21	0xbda7bbd7	-0.081901245
22	0xbd00e523	-0.03146852
23	0xbdefb8cb	-0.11705168
24	0xbcceedc2	-0.025259856
25	0x3ddaeb88	0.10689455
26	0xbe28da2e	-0.16489479
27	0x3c8972a5	0.0167783
28	0xbe5ddef7	-0.21667086
29	0xbddda51b	-0.10822507
30	0xbe827a9a	-0.25484163
31	0xbe4860b2	-0.19568136

bneck.0.bn.running_mean f4 [32]
0	0x3df7b797	0.12095564
1	0xbe855673	-0.26042518
2	0x3e9f9512	0.3116842
3	0x3e07c507	0.13258754
4	0x3ed9d7d2	0.4254747
5	0xbd956af3	-0.072957896
6	0xbc99dc2f	-0.01878175
7	0x3ef5871a	0.47954637
8	0x3e353da1	0.17699291
9	0x3e95baca	0.2924407
10	0x3d15ac8a	0.0365415
11	0xbe8c8944	-0.27448475
12	0xbdf1a5c1	-0.11799193
13	0xbb2ee178	-0.0026684683
14	0xbdd49ab5	-0.103810705
15	0xbe466a78	-0.19376552
16	0xbd18fc9c	-0.037350282
17	0xbda0a0f8	-0.07843202
18	0xbf0d0e8b	-0.55100316
19	0x3ea7ca73	0.32771644
20	0xbe2af5fc	-0.16695398
21	0xbdd06443	-0.101753734
22	0xbed3971f	-0.41326234
23	0xbbb1a5d6	-0.0054213805
24	0xbcd6ffcf	-0.026245026
25	0xbe7b853d	-0.24562545
26	0x3e9937b4	0.2992531
27	0xbe6ee330	-0.23328853
28	0xbd5b34ec	-0.053517267
29	0xbe32ad93	-0.17449026
30	0x3da67176	0.0812711
31	0xbe33b2f2	-0.17548731

bneck.0.bn.running_var f4 [32]
0	0x3caa8329	0.020814495
1	0x3c8b9af3	0.017041659
2	0x3ca74dbe	0.020422813
3	0x3ca08ea4	0.019599266
4	0x3cb33823	0.021877354
5	0x3ba0e3c6	0.004909965
6	0x3cb2b439	0.021814452
7	0x3c6f220e	0.014595522
8	0x3c4a2cd4	0.012339789
9	0x3b98c12c	0.0046616998
10	0x3bb24ebf	0.005441516
11	0x3a903a7c	0.0011003758
12	0x3c27a49c	0.010232117
13	0x3c17fcbd	0.009276566
14	0x3c6122c8	0.013741203
15	0x3c9115fd	0.01771068
16	0x3cfd0cc1	0.03088987
17	0x3c7b9acb	0.01535673
18	0x3c83840f	0.016054181
19	0x3bd03ccc	0.006354904
20	0x3c0739f7	0.008253566
21	0x3bf36462	0.007427738
22	0x3c31da0a	0.010855207
23	0x3c1b46c1	0.009477318
24	0x3c3a1b56	0.011359056
25	0x3c32504b	0.010883401
26	0x3d22d2c2	0.039751776
27	0x3d4709f6	0.048593484
28	0x3cc4f395	0.02404193
29	0x3c3568a0	0.011072308
30	0x3c3a6e1a	0.011378789
31	0x3d1e8a47	0.03870609

bneck.1.depth_conv.weight f4 [32, 1, 3, 3]
0	0xbe82047a	-0.2539404
1	0x3e4132bd	0.18867011
2	0xbcaa9884	-0.020824678
3	0x3d488c9e	0.048962228
4	0xbea8292f	-0.3284392
5	0x3d943591	0.072367795
6	0xbcf87598	-0.03032951
7	0x3eac9faf	0.3371558
8	0x3d72ccb5	0.059277255
9	0x3d35a66b	0.04434816
10	0xbcd73d0d	-0.026274228
11	0x3e4002cf	0.18751071
12	0x3cffdd01	0.031233313
13	0x3e3ff118	0.18744314
14	0xbdf8a4b0	-0.12140787
15	0x3e0d7cc4	0.13817126
16	0xbe99d529	-0.3004544
17	0xbdc70010	-0.09716809
18	0x3dbb858d	0.09156332
19	0x3d2a6318	0.04159841
20	0xbe83e6dd	-0.25762072
21	0x3db1cd3f	0.08681726
22	0x3e8fbcad	0.28073636
23	0xbe521b8f	-0.20518325
24	0x3d627a6b	0.055292528
25	0x3db91ae0	0.09038329
26	0xbd703d67	-0.058652308
27	0x3db49721	0.08817888
28	0xbdefccd9	-0.117089935
29	0xbe74369d	-0.23848958
30	0x3db84bbb	0.089988194
31	0x3dbe2b39	0.09285588
32	0xbe207e9c	-0.15673298
33	0xbe97d709	-0.29656246
34	0x3e037bcf	0.12840198
35	0xbe41ed40	-0.1893816
36	0xbe97a220	-0.2961588
37	0xbd9865b7	-0.074412756
38	0x3c28c9e7	0.0103020435
39	0xbdbd18f9	-0.09233279
40	0x3e8ff9f2	0.2812038
41	0xbd26f393	-0.040759634
42	0xbe22ca8c	-0.15897578
43	0x3a2a981b	0.0006507651
44	0xbeb82804	-0.3596803
45	0xbea216d9	-0.31658056
46	0xbb2be394	-0.0026228176
47	0x3d0243d6	0.031802975
48	0x3ea55fca	0.32299644
49	0x3e7457b2	0.23861578
50	0x3ebcf723	0.369073
51	0xbd9fdd30	-0.0780586
52	0xbebb4314	-0.36574614
53	0x3ee1dba5	0.44112888
54	0xbe19d6d6	-0.1502336
55	0xbe30dcee	-0.17271778
56	0xbdbe6833	-0.09297218
57	0x3e1ba70e	0.15200445
58	0xbe90523f	-0.2818775
59	0xbdd317a2	-0.10307242
60	0xbe772b93	-0.24137716
61	0x3ce839c0	0.02834785
62	0x3cffcbc4	0.031225093
63	0xbdca1c0a	-0.09868629
64	0xbe0e61d5	-0.13904507
65	0xbe460823	-0.19339041
66	0x3df0b25c	0.11752769
67	0x3d200e45	0.03907611
68	0x3e8bc872	0.27301365
69	0xbe4835ff	-0.19551848
70	0x3eaa8e76	0.33311814
71	0x3e33a0c9	0.17541803
72	0x3d82518e	0.063632116
73	0x3e6aadd6	0.22917876
74	0xbe812740	-0.25225258
75	0x3c830baa	0.015996773
76	0x3e2b2f53	0.16717272
77	0x3de3242b	0.11090883
78	0x3eb751d4	0.35804617
79	0x3db4b290	0.088231206
80	0xbd1f6f48	-0.038924485
81	0x3dcba2ab	0.09943136
82	0xbec43f2b	-0.38329443
83	0xbe6b409f	-0.2297387
84	0xbdcf159b	-0.10111543
85	0x3cb8fd3f	0.022581695
86	0xbce023f4	-0.027360894
87	0xbe12c5be	-0.14333245
88	0xbc3d290b	-0.01154543
89	0x3e865ced	0.26242772
90	0xbc848dab	-0.016180834
91	0xbdf23a4c	-0.118275255
92	0x3eadfbc2	0.33981138
93	0x3da014ce	0.07816468
94	0x3e6ac4a3	0.22926573
95	0x3e0d0305	0.13770683
96	0x3c6c50d7	0.014423571
97	0xbe3b8b43	-0.18314843
98	0xbe80a41d	-0.25125208
99	0xbd5452e6	-0.05183687
100	0x3e434fef	0.19073461
101	0xbded85bc	-0.115977734
102	0x3dc8fb3c	0.09813544
103	0xbe4ee54b	-0.20204656
104	0xbe69e9d7	-0.22843109
105	0x3cd03240	0.025414586
106	0xbe5e99c6	-0.21738347
107	0xbd83bc6d	-0.06432424
108	0x3e27e4b0	0.16395831
109	0xbe3f5091	-0.18683077
110	0xbe3bc818	-0.18338048
111	0xbe0841aa	-0.13306299
112	0xbdebc0a5	-0.115113534
113	0xbe38964a	-0.1802608
114	0xbda66d95	-0.0812637
115	0x3d9ef7fd	0.07762144
116	0x3e65a042	0.22424415
117	0x3e45e398	0.19325101
118	0x3d242df3	0.040082883
119	0xbea7827b	-0.32716736
120	0xbe970573	-0.29496345
121	0x3e54e44c	0.20790213
122	0xbe3ab0c6	-0.18231496
123	0x3e63961a	0.22225228
124	0xbe82585d	-0.2545804
125	0x3e3e8e27	0.18608914
126	0x3d5091a4	0.050920144
127	0x3c3d52cc	0.011555385
128	0xbdcb452e	-0.09925304
129	0x3e66c964	0.22537762
130	0x3ded174d	0.1157671
131	0xbe551d94	-0.20812064
132	0xbe990747	-0.29888365
133	0xbe6d446f	-0.23170637
134	0xbe0e9b68	-0.1392647
135	0xbc541974	-0.012945522
136	0xbd47df87	-0.048797157
137	0xbc7a2f30	-0.015270039
138	0x3d975b8a	0.073905066
139	0x3e2c6bd4	0.16838008
140	0x3c15d4a9	0.00914494
141	0xbe8caec3	-0.27477083
142	0xbd9888d8	-0.07447976
143	0x3ec639b7	0.38715908
144	0xbe9849a8	-0.29743695
145	0x3e74c327	0.2390257
146	0xbe841d03	-0.25803384
147	0x3ee857af	0.45379397
148	0x3dbedf74	0.09319964
149	0x3d9bdb0e	0.07610141
150	0xbeadc59f	-0.33939835
151	0x3eafdbfc	0.34347522
152	0x3b5848bc	0.0033002337
153	0x3de51290	0.11185181
154	0x3e23a70d	0.15981694
155	0x3e792d0a	0.24333587
156	0xbdc1e759	-0.09467954
157	0xbe846ba6	-0.2586338
158	0xbe1f0509	-0.15529265
159	0x3dccfa35	0.10008661
160	0x3eb13a2f	0.34614703
161	0xbe343d38	-0.17601478
162	0xbcaddaef	-0.02122256
163	0xbdcd311a	-0.10019131
164	0x3bd92c56	0.0066275997
165	0xbd2b0bec	-0.041759416
166	0x3d86fe6d	0.065914966
167	0x3ea5cdf6	0.32383698
168	0xbde40f13	-0.11135688
169	0xbe4d88eb	-0.20071761
170	0x3d116516	0.035496794
171	0xbec232c0	-0.37929344
172	0x3db67c34	0.089104086
173	0xbe4b737b	-0.19868271
174	0xbda155b0	-0.07877672
175	0x3d420162	0.0473646
176	0x3e7b8f58	0.245664
177	0x3e5d3b36	0.21604618
178	0x3e1caa14	0.15299255
179	0xbe58edf1	-0.21184517
180	0xbe8a27e5	-0.26983562
181	0xbde4eabb	-0.11177584
182	0xbbea06b5	-0.007141913
183	0xbc5cd2c5	-0.013477986
184	0x3dbba0a9	0.09161503
185	0x3e2e24b6	0.17006192
186	0xbb642bfd	-0.0034816258
187	0xbe8cd4f1	-0.2750621
188	0xbe238046	-0.15966901
189	0x3eb0dd7b	0.34543976
190	0xbd688e66	-0.056776427
191	0xbebf99e5	-0.374221
192	0xbe8a3002	-0.26989752
193	0x3e21915f	0.15778111
194	0xbe4dd378	-0.201002
195	0xbeb8133a	-0.3595217
196	0xbe3d7e93	-0.18505315
197	0x3d1e0504	0.038579002
198	0x3ea6a171	0.32545045
199	0xbd3639c2	-0.044488676
200	0x3d829232	0.06375541
201	0x3e9b2a79	0.30305842
202	0x3e3bf57c	0.18355364
203	0x3d8d6447	0.06903892
204	0xbddd634f	-0.10809957
205	0x3e75bf90	0.23998857
206	0x3d8460b3	0.064637564
207	0xbe1da4bd	-0.15394874
208	0xbd985cab	-0.0743955
209	0x3c8d0e66	0.01721878
210	0x3cbf523d	0.023354644
211	0x3e807cca	0.25095206
212	0xbcc9e63c	-0.024645917
213	0xbe67e380	-0.22645378
214	0x3e6fd3be	0.23420617
215	0xbd87ea99	-0.06636543
216	0xbe2d6223	-0.16931967
217	0xbe52f058	-0.20599496
218	0x3e837fc0	0.25683403
219	0x3e887f94	0.26659834
220	0xbd8105d4	-0.0629994
221	0x3e3dfc79	0.18553342
222	0xbe86b25b	-0.2630795
223	0x3e91f90e	0.28510326
224	0xbe37a1b0	-0.17932773
225	0xbc9e6fd9	-0.019340442
226	0xbda88d43	-0.082300685
227	0x3e83098f	0.2559323
228	0xbeaefed7	-0.34178802
229	0xbd09ce2f	-0.033643898
230	0x3d09686f	0.03354686
231	0xbe31d3bc	-0.17365927
232	0xbd480001	-0.04882813
233	0xbe68a4c7	-0.22719108
234	0x3de76cfb	0.11300083
235	0x3e71bbb6	0.23606762
236	0xbe298ccc	-0.16557616
237	0x3e3e417a	0.18579665
238	0x3e30c71f	0.17263459
239	0xbe1e8536	-0.15480503
240	0x3ea87ae4	0.32906258
241	0x3e5f3ecd	0.218013
242	0x3e9cf76b	0.30657515
243	0x3e8d5cbc	0.27609813
244	0x3ec058e5	0.3756782
245	0xbc58d6b7	-0.013234786
246	0x3bd63f38	0.006538298
247	0xbc9cb107	-0.019127382
248	0x3e22f74e	0.15914652
249	0xbd976c8e	-0.07393752
250	0xbdba7d8c	-0.091059774
251	0xbe3775f5	-0.17916091
252	0xbe02b917	-0.12765919
253	0xbeda5160	-0.4264021
254	0xbea07b5d	-0.3134412
255	0x3e8dec50	0.27719355

bneck.1.depth_conv.bias f4 [32]
0	0x3cb8a9d1	0.022541912
1	0x3e81267c	0.25224674
2	0xbe6fad22	-0.23405889
3	0xbe875edb	-0.26439556
4	0x3e28b9ae	0.16477081
5	0x3e2d9362	0.16950753
6	0xbd850158	-0.06494397
7	0xbe364dfe	-0.17803189
8	0xbe78d344	-0.24299341
9	0xbd22915c	-0.039689407
10	0xbdcb9a03	-0.09941485
11	0xbe6a7f51	-0.2290013
12	0x3e092a56	0.13395056
13	0x3e229fea	0.15881315
14	0xbe6961f7	-0.22791277
15	0xbe81187e	-0.25214
16	0xbe493cff	-0.19652174
17	0xbe6c710e	-0.23090002
18	0xbd9701a9	-0.073733635
19	0xbe4ad0a9	-0.1980616
20	0xbe21e33f	-0.15809344
21	0xbce2aaf5	-0.02766941
22	0x3e6c231b	0.23060267
23	0x3c948713	0.018130815
24	0xbe08fcb4	-0.13377649
25	0xbdee4c60	-0.11635661
26	0xbe0fc101	-0.14038469
27	0x3e14c27b	0.14527313
28	0x3caf7fa5	0.02142317
29	0xbd2c2ebf	-0.042036768
30	0xbe764583	-0.24049954
31	0x3e7bcbed	0.2458951

bneck.1.point_conv.weight f4 [64, 32, 1, 1]
0	0xbdc31cd6	-0.095269844
1	0x3eb7b4ac	0.3588003
2	0x3e2cb264	0.16864926
3	0x3d88d2e0	0.06680846
4	0xbe10805d	-0.14111467
5	0xbe478cc1	-0.19487287
6	0xbd603a29	-0.054742966
7	0xbc016cae	-0.007899446
8	0xbdfc72ef	-0.12326609
9	0x3d3ea932	0.046548076
10	0xbd57d479	-0.052692864
11	0x3dee97b2	0.11650027
12	0x3d76b183	0.060227882
13	0x3d38f5ee	0.04515641
14	0x3e235c21	0.15953113
15	0xbe240980	-0.16019249
16	0xbce6e1e5	-0.028183887
17	0x3dc59f54	0.0964953
18	0xbe00e7f1	-0.12588479
19	0x3e872135	0.26392522
20	0x3df3be5a	0.11901541
21	0xbe6f7017	-0.23382603
22	0x3de04a94	0.10951725
23	0xbc96c37a	-0.018403757
24	0xbe73830e	-0.23780462
25	0x3ba7acf0	0.0051170513
26	0xbb1690fa	-0.0022974596
27	0xbdbb25d8	-0.091380775
28	0x3e1169a6	0.14200458
29	0xbe495395	-0.1966079
30	0x3ce870f1	0.028374167
31	0xbcda0fde	-0.026618894
32	0xbe3f1556	-0.18660483
33	0x3e38245c	0.1798262
34	0xbe865f58	-0.26244617
35	0xbd9190b1	-0.07107676
36	0x3d9c6642	0.07636692
37	0xbdbe60e4	-0.09295824
38	0xbda00400	-0.07813263
39	0x3db8092e	0.08986126
40	0x3e103973	0.14084415
41	0x3e1db948	0.1540271
42	0x3ca7eb61	0.02049798
43	0xbeab0ea8	-0.3340962
44	0x3d4eeb6c	0.050517485
45	0x3d940b2c	0.07228693
46	0xbdd92409	-0.10602576
47	0x3cded9f1	0.027203532
48	0x3e0f3b4f	0.13987468
49	0xbd485550	-0.048909485
50	0xbe9eae22	-0.30992228
51	0x3e1338f3	0.14377193
52	0xbdfc21b7	-0.12311118
53	0x3e615fe6	0.22009239
54	0xbd55abdd	-0.052165855
55	0xbe2dc0a4	-0.16968018
56	0x3d82a990	0.06379998
57	0x3cc3d5e4	0.023905702
58	0xbe1ec178	-0.1550349
59	0x3c24fd98	0.010070227
60	0x3dc77c0a	0.097404554
61	0x3e13a883	0.14419751
62	0xbdd9487d	-0.10609529
63	0x3cae3e67	0.02126999
64	0x3e06fa51	0.13181426
65	0x3d8526b4	0.06501523
66	0x3d32818b	0.043580573
67	0x3e14b0ae	0.14520523
68	0x3d0f2673	0.034948777
69	0xbd8c8633	-0.06861534
70	0xbca8069c	-0.020510964
71	0x3e2039a7	0.15646993
72	0xbc8a0257	-0.016846819
73	0x3cd4b301	0.025964262
74	0x3e32781d	0.17428632
75	0x3e3eead4	0.18644267
76	0xbd6fd743	-0.0585549
77	0x3c53fcab	0.012938659
78	0xbd8c07b5	-0.068374075
79	0x3b0d1597	0.002152776
80	0xbe9f3a3e	-0.31099123
81	0xbd37b7b1	-0.044852916
82	0x3df9ac1d	0.12191031
83	0xbe820de5	-0.25401226
84	0xbdd30ac9	-0.103047915
85	0x3d2b422e	0.04181116
86	0x3dbcb1be	0.09213589
87	0x3d620079	0.055176232
88	0x3e2be30a	0.16785827
89	0xbd5dcdb9	-0.05415127
90	0x3aba94d2	0.0014235026
91	0x3dd1d833	0.10246315
92	0xbbc42a0b	-0.005986457
93	0xbcc561f1	-0.024094554
94	0x3e3b1517	0.18269764
95	0xbe008975	-0.12552436
96	0x3d689228	0.05678001
97	0x3d6fe758	0.058570236
98	0x3d8f3d3b	0.06994101
99	0x3df1a66a	0.11799319
100	0xbe07d59a	-0.13265076
101	0xbe967737	-0.2938783
102	0x3c57862d	0.013154549
103	0x3d280a62	0.041025527
104	0x3da0e96c	0.07857022
105	0x3e209022	0.15679982
106	0x3e137743	0.14400963
107	0x3d5e56a1	0.054281835
108	0x3e203d3c	0.15648359
109	0xbdb42bd1	-0.0879742
110	0xbd84e028	-0.06488067
111	0x3e416503	0.18886189
112	0xbe0d4561	-0.13795997
113	0xbe9096a1	-0.2823992
114	0xbd3ca0b2	-0.04605169
115	0xbe738cec	-0.23784226
116	0x3e20aca9	0.15690865
117	0x3e13cb50	0.14433026
118	0xbcd175de	-0.025568899
119	0xbda4875d	-0.08033631
120	0xbd2d1070	-0.042252004
121	0xbda6f358	-0.08151883
122	0x3c3120df	0.01081106
123	0xbd923a59	-0.07140035
124	0x3d21ed39	0.039532874
125	0x3bbf70a9	0.0058422876
126	0x3e24d9a1	0.16098644
127	0x3d9ef1d4	0.07760969
128	0x3e8a2bc4	0.26986516
129	0x3e75fff5	0.24023421
130	0xbb4b079c	-0.0030979877
131	0xbb086c40	-0.0020816475
132	0xbd9f9562	-0.077921644
133	0xbe644dc6	-0.22295293
134	0xbdb3ac14	-0.08773056
135	0xbe1638f5	-0.14670165
136	0x3df1919e	0.117953524
137	0x3e870452	0.26370484
138	0x3cbe0774	0.023196913
139	0x3d9f92c0	0.07791662
140	0x3d970853	0.073746346
141	0xbe00db64	-0.12583691
142	0xbdc5d57d	-0.0965986
143	0xbe1182a4	-0.14209992
144	0x3e375c81	0.17906381
145	0xbe6318db	-0.2217745
146	0xbc8c9d23	-0.017164772
147	0xbdb055dc	-0.086101264
148	0xbd7a3c78	-0.061092824
149	0xbc3ea8d2	-0.01163693
150	0x3e2e375a	0.17013302
151	0xbe1ffa66	-0.15622863
152	0xbdad3d29	-0.08458931
153	0xbdd38ad7	-0.10329216
154	0x3d067c97	0.032833662
155	0x3c9d297f	0.019184826
156	0x3cbb30c2	0.022850398
157	0xbba5621c	-0.005047096
158	0xbc821fdc	-0.015884332
159	0x3d2684c0	0.040653944
160	0xbca3592f	-0.019939987
161	0xbdc29428	-0.09500915
162	0xbdf85cd9	-0.12127084
163	0xbdbbc6a6	-0.091687486
164	0x3e0b86f3	0.13625698
165	0x3c69c860	0.0142689645
166	0xbe04deb9	-0.12975587
167	0x3e1ade32	0.15123823
168	0x3cf9d590	0.030497342
169	0xbe14ca18	-0.14530218
170	0xbe94323a	-0.2894457
171	0xbcaa3867	-0.020778848
172	0x3d89d489	0.06729991
173	0x3df788b5	0.12086622
174	0x3d3091ac	0.043107674
175	0xbd29244d	-0.041294385
176	0x3dd36ac7	0.103231005
177	0x3d8e0810	0.069351315
178	0x3c898468	0.016786769
179	0x3cab0322	0.020875517
180	0xbd0cb5d5	-0.034353096
181	0x3db1f3e9	0.086891
182	0x3e476513	0.1947215
183	0x3db4c854	0.08827272
184	0xbe5538a7	-0.20822392
185	0xbe035a38	-0.12827384
186	0x3d1b5301	0.037920956
187	0xbe4f1530	-0.20222926
188	0x3cfc85d6	0.030825537
189	0x3dfd1d48	0.123591006
190	0x3e835542	0.25650984
191	0xbdd964cb	-0.10614928
192	0xbc95ec45	-0.018301139
193	0xbd0dd4f5	-0.03462692
194	0x3ded430a	0.11585052
195	0x3d883a5a	0.06651755
196	0xbe269616	-0.1626819
197	0xbeded5a7	-0.4352238
198	0x3d66fd49	0.056393895
199	0x3d87573d	0.06608436
200	0x3d4aca36	0.04950925
201	0xbd83852c	-0.06421885
202	0x3d30f634	0.043203548
203	0x3dc6c84b	0.097061716
204	0xbd2cdc8c	-0.042202517
205	0x3d2efccd	0.04272156
206	0x3d006d7b	0.03135441
207	0x3e023497	0.12715374
208	0x3d93221b	0.071842395
209	0x3d499c0b	0.04922108
210	0xbd9d704e	-0.07687436
211	0xbdeb034b	-0.114752375
212	0xbd496eab	-0.049177807
213	0x3cda52c1	0.026650788
214	0x3d1fc18a	0.039002933
215	0xbe86dcbf	-0.2634029
216	0x3c90cd75	0.017676095
217	0xbe03a764	-0.12856823
218	0xbc77e975	-0.015131344
219	0xbd442940	-0.0478909
220	0x3eb8883a	0.36041433
221	0x3d48f400	0.04906082
222	0x3dca98f9	0.098924585
223	0x3d624e46	0.05525043
224	0x3e6d7da5	0.23192461
225	0x3d50d025	0.050979752
226	0xbdb6eef4	-0.089322954
227	0xbe20d6eb	-0.15706985
228	0xbd8a4ef1	-0.06753338
229	0x3c1068c6	0.008814042
230	0x3df05230	0.11734426
231	0xbdbfc54a	-0.09363802
232	0xbd3b639b	-0.045749288
233	0xbe154aad	-0.14579268
234	0x3def5b3c	0.116873235
235	0x3da44301	0.080205925
236	0x3d189aef	0.03725713
237	0x3c3c223f	0.011482774
238	0x3c495464	0.012288187
239	0x3cce252c	0.02516421
240	0x3e2ad3a3	0.16682296
241	0x3d971669	0.07377321
242	0xbe67bd94	-0.22630912
243	0xbda63f8f	-0.081175916
244	0x3d211aea	0.039332308
245	0xbe5c03fd	-0.21485896
246	0x3df4bdcf	0.119502656
247	0xbbebebc9	-0.0071997386
248	0x3cd6b7b3	0.026210641
249	0x3c303af2	0.010756241
250	0xbdeb9208	-0.115024626
251	0x3cf9898b	0.030461093
252	0x3e065196	0.1311706
253	0xbe08e266	-0.13367614
254	0xbeb360ef	-0.35034892
255	0x3dceafb4	0.100921065

bneck.1.point_conv.bias f4 [64]
0	0xbe177060	-0.14788961
1	0xbdb6921f	-0.08914589
2	0x3db6016a	0.088869885
3	0xbcf28aec	-0.029607259
4	0x3cbf2225	0.023331711
5	0xbdec32e5	-0.11533145
6	0x3e05f9a9	0.13083519
7	0x3dc72c87	0.0972529
8	0xbda69f34	-0.08135834
9	0xbdc0d007	-0.09414678
10	0x3c4047f6	0.011735907
11	0x3c15e714	0.009149332
12	0xbe150663	-0.14553218
13	0xbdda63ab	-0.106635414
14	0x3d4e933e	0.05043339
15	0xbdc9396a	-0.09825404
16	0xbd6ff1d2	-0.058580227
17	0x3d1d042a	0.03833405
18	0xbdc6e6ad	-0.09711967
19	0xbd9bf3aa	-0.076148346
20	0x3d61d86b	0.055138033
21	0xbbe4fa6e	-0.0069878614
22	0xbd592c75	-0.053020913
23	0x3e069127	0.13141309
24	0xbe11bcc2	-0.14232162
25	0xbda09644	-0.07841161
26	0xbd94481c	-0.07240316
27	0xbded28ae	-0.11580025
28	0x3e0d03d9	0.13770999
29	0xbe05074d	-0.12991066
30	0x3c9e4856	0.019321602
31	0x3d13f069	0.036117945
32	0x3cf8fac2	0.030393008
33	0x3d9dcbf0	0.077049136
34	0xbd481fae	-0.048858337
35	0x3d2b218d	0.041780043
36	0xbd2e59c8	-0.04256609
37	0xbe0bd216	-0.1365436
38	0x3d02a24a	0.031893052
39	0xbd3d0e01	-0.046155933
40	0x3cd94433	0.026521778
41	0x3e0dfb09	0.13865294
42	0x3dc8d0e7	0.0980547
43	0xbde6bcfa	-0.11266513
44	0x3de07e69	0.10961611
45	0x3c1c52b5	0.009541203
46	0xbe208359	-0.15675105
47	0x3c9f449a	0.019441891
48	0xbd003a15	-0.03130539
49	0xbca0c3dd	-0.019624645
50	0x3d1936b4	0.037405685
51	0x3d70ca23	0.058786523
52	0xbd9a53c1	-0.07535506
53	0x3d088c2d	0.033336807
54	0x3e0b04c5	0.13576038
55	0xbc03ed35	-0.00805216
56	0xbe0c732f	-0.13715814
57	0x3cfcc5ee	0.030856099
58	0x3e023142	0.12714103
59	0xbdbc0cca	-0.09182127
60	0xbd81adfe	-0.063320145
61	0x3e111d79	0.14171399
62	0xb99ef91b	-0.00030321706
63	0x3cabf5b9	0.020991193

bneck.1.bn.weight f4 [64]
0	0x3f4d0d61	0.8009854
1	0x3f431b06	0.7621311
2	0x3f7d661f	0.9898395
3	0x3f82a169	1.0205508
4	0x3f396cfe	0.72431934
5	0x3f56396c	0.8368137
6	0x3f8d5bb8	1.1043615
7	0x3f5911eb	0.84792966
8	0x3f702ce9	0.9381853
9	0x3f493f21	0.7861195
10	0x3f649043	0.89282626
11	0x3f5a11d5	0.8518346
12	0x3f5f5a6e	0.8724736
13	0x3f690bc6	0.9103359
14	0x3f5a0d01	0.8517609
15	0x3f5e105f	0.8674373
16	0x3f5381bb	0.8261983
17	0x3f54ced5	0.831281
18	0x3f4eca13	0.8077709
19	0x3f56cfe6	0.8391098
20	0x3f81aaae	1.0130212
21	0x3f4a7717	0.79087967
22	0x3f667d76	0.9003519
23	0x3f555f90	0.8334894
24	0x3f44f2b3	0.7693283
25	0x3f5be1ab	0.85891217
26	0x3f607165	0.87673026
27	0x3f68bda3	0.9091436
28	0x3f647154	0.89235425
29	0x3f530960	0.8243618
30	0x3f55e4c6	0.83552206
31	0x3f6e2544	0.9302561
32	0x3f501b82	0.81291974
33	0x3f56aa96	0.83854043
34	0x3f7ba106	0.9829258
35	0x3f6f3227	0.934359
36	0x3f658546	0.89656484
37	0x3f7bd4f2	0.98371804
38	0x3f4837a3	0.78209895
39	0x3f74314e	0.95387733
40	0x3f641f2a	0.8911005
41	0x3f3bcf24	0.73362947
42	0x3f6bccc0	0.921093
43	0x3f5353b7	0.82549614
44	0x3f592f96	0.84838235
45	0x3f539d05	0.8266147
46	0x3f716b42	0.9430429
47	0x3f476ce6	0.7790054
48	0x3f4e26b8	0.8052783
49	0x3f5f9664	0.8733885
50	0x3f40d694	0.7532742
51	0x3f635529	0.8880182
52	0x3f45ef12	0.7731792
53	0x3f7e3b40	0.9930916
54	0x3f4dfc32	0.80462945
55	0x3f7137ab	0.9422557
56	0x3f6bd4f6	0.9212183
57	0x3f5a33df	0.852354
58	0x3f4ee6a5	0.80820686
59	0x3f47451b	0.7783982
60	0x3f845a0c	1.033998
61	0x3f565917	0.8372969
62	0x3f5d9e71	0.8656989
63	0x3f4b138f	0.7932672

bneck.1.bn.bias f4 [64]
0	0xbdea7399	-0.1144783
1	0xbdfe33da	-0.12412234
2	0xbcc02b7b	-0.023458233
3	0xbe24fee2	-0.16112855
4	0xbd23dc73	-0.04000516
5	0xbd8da9e4	-0.0691717
6	0xbe3c4e89	-0.18389334
7	0xbe9fc7d6	-0.3120715
8	0xbebd04a0	-0.3691759
9	0xbef92222	-0.48658854
10	0xbe1dfa57	-0.15427528
11	0xbe20719e	-0.15668342
12	0xbe652f6f	-0.22381376
13	0xbe186e8b	-0.14885919
14	0xbe8a2898	-0.26984096
15	0xbe8a1cc5	-0.26975074
16	0xbe4dbe6e	-0.20092174
17	0xbe25c669	-0.16188969
18	0xbe9148f5	-0.28375974
19	0xbeb08479	-0.3447607
20	0x3d0265fe	0.03183555
21	0xbe8d0eef	-0.27550456
22	0xbdaa63c5	-0.08319811
23	0xbd0923cc	-0.033481404
24	0xbe47f035	-0.19525225
25	0xbd39db5a	-0.045375206
26	0xbe8fd27c	-0.28090274
27	0xbe26b9e4	-0.16281849
28	0xbe1aea83	-0.15128522
29	0xbe3f80b3	-0.18701439
30	0xbe4b8b44	-0.19877344
31	0xbea2b9f8	-0.31782508
32	0xbe3b1860	-0.18271017
33	0xbe94cb22	-0.29061228
34	0xbebff35e	-0.37490362
35	0xbe37c788	-0.17947209
36	0xbd4e920b	-0.050432246
37	0xbc856051	-0.016281279
38	0xbeb44291	-0.35207036
39	0xbdc1afdf	-0.09457373
40	0xbd527e15	-0.051389772
41	0xbe8e5c9b	-0.27805027
42	0xbe4e1a10	-0.2012713
43	0xbe221f8a	-0.15832344
44	0xbecbf705	-0.39836898
45	0xbdd4c6d3	-0.10389485
46	0xbe27aa57	-0.16373573
47	0xbdb04107	-0.08606153
48	0xbce72ef8	-0.028220639
49	0xbe40de75	-0.1883486
50	0xbdfe11bf	-0.124057285
51	0xbe90d8b4	-0.2829033
52	0xbe55e202	-0.20886996
53	0xbe805d92	-0.25071388
54	0xbea08059	-0.31347921
55	0xbe09f309	-0.13471617
56	0xbd92dfdc	-0.07171604
57	0xbe0e864c	-0.13918418
58	0xbe70c30f	-0.23511909
59	0xbdf20571	-0.11817444
60	0xbcc83a81	-0.02444196
61	0xbe97d97d	-0.29658118
62	0xbe1ad2e3	-0.1511951
63	0xbe00887d	-0.12552066

bneck.1.bn.running_mean f4 [64]
0	0xbe83719d	-0.25672618
1	0x3d816b18	0.06319255
2	0x3d14ca34	0.03632565
3	0xbea496ba	-0.32146245
4	0x3e5d5da3	0.21617751
5	0xbd099530	-0.033589542
6	0xbe5ebf9b	-0.21752779
7	0x3ec0f7f0	0.3768916
8	0x3dfda364	0.1238468
9	0x3e0cf160	0.13763952
10	0xbda615bb	-0.081096135
11	0xbc97e8ec	-0.018543683
12	0xbf0fa5f2	-0.5611259
13	0xbe9a5704	-0.30144513
14	0x3e0e1b4b	0.13877599
15	0xbe45d283	-0.19318585
16	0x3d9a40a3	0.0753186
17	0x3e3ba13e	0.18323228
18	0x3e3c01d8	0.18360078
19	0x3e5ef52b	0.21773212
20	0xbe956641	-0.29179576
21	0x3edbabb4	0.42904437
22	0xbe8a6549	-0.270304
23	0x3de074fd	0.10959814
24	0xbe17d9f5	-0.14829238
25	0xbe88af39	-0.26696184
26	0x3e0cb23a	0.13739863
27	0x3d8544af	0.06507241
28	0x3e0d63ba	0.13807574
29	0x3b8b7f67	0.004257131
30	0x3e5aeb04	0.21378714
31	0xbcf9d45c	-0.030496769
32	0xbdfcfc69	-0.12352831
33	0x3c84294d	0.016132975
34	0x3e899fd9	0.26879767
35	0xbbca9ae1	-0.006183014
36	0xbc4673fd	-0.012112615
37	0xbe6090be	-0.21930215
38	0xbd7c953a	-0.06166575
39	0xbe69fdb6	-0.2285069
40	0x3c0085dc	0.007844415
41	0xbdb30d8e	-0.0874282
42	0x3c59d90b	0.013296376
43	0xbe771412	-0.2412875
44	0xbd9ffebe	-0.0781226
45	0xbe24a4e8	-0.16078532
46	0xbe5955fe	-0.2122421
47	0xbcf3ad25	-0.029745648
48	0xbe5758bc	-0.21029943
49	0xbe0b4ad5	-0.13602765
50	0xbd890fa5	-0.06692437
51	0x3d08668d	0.033300925
52	0x3e1e344d	0.15449639
53	0xbda90c39	-0.082542844
54	0x3e5885c6	0.2114478
55	0xbd210a15	-0.039316256
56	0x3d1aa6d1	0.037756745
57	0xbd467333	-0.048449706
58	0xbc3041ca	-0.010757873
59	0xbe8f723e	-0.28016847
60	0xbeb02d29	-0.34409454
61	0x3d7e214a	0.062043466
62	0x3df7d943	0.12101986
63	0x3c8cce25	0.017188141

bneck.1.bn.running_var f4 [64]
0	0x3d34821c	0.044069394
1	0x3d03812b	0.032105606
2	0x3d05f0b5	0.03270026
3	0x3d679407	0.056537654
4	0x3d27d6de	0.040976398
5	0x3cbc1966	0.02296133
6	0x3db7c1c0	0.08972502
7	0x3ca247a8	0.019809559
8	0x3d07fe8b	0.033201735
9	0x3cb1eb68	0.021718696
10	0x3ccb2ef0	0.024802655
11	0x3d2038e3	0.03911675
12	0x3cd5cf6d	0.026099885
13	0x3d299b42	0.04140783
14	0x3caccfdc	0.021095209
15	0x3cf0de11	0.029402765
16	0x3d2d1f2a	0.04226605
17	0x3c864ffe	0.016395565
18	0x3cb09650	0.02155605
19	0x3cfce16f	0.030869214
20	0x3cfe09fc	0.03101062
21	0x3d1b42b7	0.03790542
22	0x3d1322a0	0.035921693
23	0x3ce9be97	0.028533263
24	0x3d357216	0.044298254
25	0x3cc69e69	0.024245458
26	0x3d357313	0.044299196
27	0x3d21d999	0.039514158
28	0x3d234a4d	0.03986578
29	0x3cff7542	0.031183843
30	0x3ce739cc	0.028225802
31	0x3cec2292	0.028825078
32	0x3d0239c9	0.03179339
33	0x3d037e8a	0.0321031
34	0x3d2f4482	0.042789944
35	0x3d17f9c9	0.037103448
36	0x3d2d3119	0.04228315
37	0x3d304ef9	0.043044064
38	0x3d28ec2c	0.041240856
39	0x3d833d06	0.06408124
40	0x3ce2d87e	0.027691122
41	0x3d217265	0.039415736
42	0x3d824a8d	0.06361876
43	0x3cb8f8b0	0.022579521
44	0x3cfa3b1a	0.03054576
45	0x3d4c046f	0.049808916
46	0x3d0bfb16	0.034175
47	0x3d320e3c	0.043470606
48	0x3cb03072	0.021507476
49	0x3c7ecd31	0.015551851
50	0x3d003bf1	0.031307165
51	0x3d2f7bf9	0.04284284
52	0x3caaff23	0.020873612
53	0x3d951b38	0.07280582
54	0x3cfd0c54	0.030889668
55	0x3d46cac0	0.0485332
56	0x3d6d1d0a	0.057889022
57	0x3d4b0f3d	0.04957508
58	0x3d2649a6	0.04059758
59	0x3d4bdd93	0.049771857
60	0x3d1c7510	0.038197577
61	0x3d26011e	0.04052841
62	0x3cc4df28	0.02403219
63	0x3d0ea079	0.034821007

bneck.3.depth_conv.weight f4 [64, 1, 3, 3]
0	0xbcf4d25f	-0.029885469
1	0xbe92f029	-0.28698853
2	0x3d8ea8a4	0.069657594
3	0x3d91caa7	0.07118731
4	0x3d9075d0	0.07053721
5	0x3d849509	0.06473739
6	0x3d7d1b77	0.06179377
7	0x3e0cb22e	0.13739845
8	0xbd8ba1c8	-0.06817967
9	0x3e3aa260	0.18226004
10	0xbdc8eb28	-0.098104775
11	0xbe625495	-0.22102578
12	0x3e0f7344	0.14008814
13	0xbdce2e11	-0.1006738
14	0xbc8ecb8b	-0.017431041
15	0xbd117d9c	-0.03552018
16	0x3e3977ec	0.18112153
17	0x3cdbc7b6	0.026828628
18	0x3d97a407	0.074043326
19	0x3dbb28dc	0.09138653
20	0xbd39955f	-0.045308467
21	0xbe71a2c9	-0.23597254
22	0xbe53ff37	-0.20702825
23	0xbe52f149	-0.20599855
24	0xbd8dc5f8	-0.06922525
25	0x3d49f7b0	0.04930848
26	0x3eddd2c4	0.43324864
27	0xbd34622b	-0.044038933
28	0x3ed731a8	0.42030072
29	0xbd42971d	-0.047507394
30	0x3e7806cf	0.24221347
31	0xbe90e9f5	-0.28303495
32	0xbe9bb5ba	-0.30412084
33	0xbe37a95a	-0.17935696
34	0xbec3c8bd	-0.3823909
35	0x3e0a4fbe	0.13506982
36	0xbe95afe5	-0.2923576
37	0x3d63700c	0.055526778
38	0x3e9eabea	0.30990535
39	0xbdfda0e9	-0.12384207
40	0x3e3a7296	0.18207774
41	0x3e1183a4	0.14210373
42	0xbdacd232	-0.08438529
43	0xbe650d70	-0.22368407
44	0x3db72c77	0.08944028
45	0x3e7ad096	0.24493632
46	0xbdbcfea3	-0.092282556
47	0xbdee8eaf	-0.116483085
48	0xbd99e445	-0.07514242
49	0x3e7ca744	0.24673182
50	0xbe17ec08	-0.14836133
51	0x3d2be93f	0.041970488
52	0x3e9a7e4a	0.30174476
53	0xbe2ed08e	-0.17071745
54	0x3e5ace07	0.21367656
55	0xbe8aae07	-0.27085897
56	0xbe0682a8	-0.13135779
57	0x3e3b6ea7	0.1830393
58	0x3e74c1b0	0.23902011
59	0x3c1ccb58	0.009569965
60	0xbedaadde	-0.42710775
61	0xbdc1aaef	-0.09456431
62	0x3e74916e	0.23883602
63	0x3b91105f	0.0044270004
64	0xbdf8d786	-0.12150483
65	0x3e1e4b81	0.1545849
66	0x3e93dc17	0.28878853
67	0x3c877751	0.016536387
68	0xbec0b1a8	-0.3763554
69	0x3e22f1da	0.15912572
70	0x3e27d288	0.16388905
71	0x3e9550b4	0.29163134
72	0xbe46a6bb	-0.1939954
73	0x3d7a0539	0.061040137
74	0xbe597e66	-0.21239623
75	0xbe6d9724	-0.23202187
76	0xbe783b4e	-0.24241373
77	0x3e9d2f1c	0.30700004
78	0x3b9c250f	0.00476516
79	0x3e544ff3	0.20733623
80	0xbeb5a98e	-0.35480922
81	0xbec8a694	-0.3918959
82	0x3e36ac68	0.17839205
83	0x3d70c00d	0.058776904
84	0x3da2eae6	0.079549596
85	0x3e5bc8a0	0.21463251
86	0x3da03f68	0.07824594
87	0x3cb70786	0.022342455
88	0x3e879da8	0.2648747
89	0x3e9c1e84	0.30492032
90	0x3eb4a9ae	0.35285705
91	0xbe838f4e	-0.2569527
92	0xbdd8f889	-0.10594279
93	0x3d71bf26	0.059020184
94	0xbd8c2f31	-0.068449385
95	0xbde8c16c	-0.11365017
96	0x3e99b9af	0.30024478
97	0xbe9cc849	-0.30621555
98	0x3dd558bc	0.10417315
99	0xbe647ac7	-0.22312461
100	0xbe122d3d	-0.1427507
101	0x3d024630	0.031805217
102	0xbe11da50	-0.14243436
103	0x3e418dbe	0.18901727
104	0xbeb63909	-0.3559039
105	0xbd180182	-0.037110813
106	0x3e4a1606	0.19734964
107	0xbd800ae1	-0.06252075
108	0xbe977daf	-0.29588076
109	0x3e131148	0.14362061
110	0xbdb07661	-0.08616329
111	0x3dd5db6b	0.10442241
112	0x3e605b1f	0.2190976
113	0x3e27fa9f	0.16404198
114	0x3e473d45	0.19456966
115	0xbe0b43ac	-0.13600034
116	0xbd8481a0	-0.064700365
117	0xbe1b0f03	-0.15142445
118	0x3eee2be3	0.46517858
119	0xbe18a975	-0.14908393
120	0xbe8ccf62	-0.2750197
121	0x3db46709	0.08808715
122	0xbeb1a3d4	-0.34695303
123	0x3e85037c	0.2597922
124	0x3e111563	0.14168315
125	0xbe231da9	-0.15929283
126	0xbd3b359e	-0.04570543
127	0xbe20caba	-0.15702334
128	0x3e33df99	0.17565764
129	0x3e850212	0.25978142
130	0xbe3f6580	-0.18691063
131	0xbea369a7	-0.31916544
132	0x3b40a610	0.0029395856
133	0x3d0feb85	0.03513672
134	0x3e18218f	0.14856552
135	0x3df32942	0.11873104
136	0x3e94d157	0.29065964
137	0x3e028baf	0.12748598
138	0xbe615b28	-0.2200743
139	0x3e9968c9	0.29962757
140	0xbe3f2cf5	-0.18669493
141	0xbdd14ca3	-0.102196954
142	0xbe7c008d	-0.24609585
143	0x3e859498	0.2608993
144	0x3e71dc1f	0.23619126
145	0xbde349d6	-0.110980675
146	0x3e2596d7	0.16170822
147	0xbe729e19	-0.23693122
148	0x3c1c6f8b	0.009548078
149	0x3dbce990	0.09224236
150	0x3eaec61a	0.34135514
151	0xbe61b97f	-0.22043417
152	0xbdbe85fe	-0.09302901
153	0xbe419feb	-0.1890866
154	0x3e9883a6	0.2978794
155	0xbdb7810b	-0.0896016
156	0xbe52fa5c	-0.20603317
157	0x3e8bf72f	0.27337024
158	0x3dd5e742	0.104444996
159	0xbd32df42	-0.043669946
160	0xbde9d67a	-0.11417861
161	0xbe8dbb94	-0.27682173
162	0x3e900999	0.28132322
163	0xbd21f214	-0.039537504
164	0xbe60e33e	-0.21961686
165	0x3e800b96	0.2500884
166	0x3e26f22a	0.16303316
167	0xbe556f94	-0.20843345
168	0xbd7dcabc	-0.06196092
169	0xbd933c5b	-0.07189246
170	0x3d133030	0.035934627
171	0xbdfaa400	-0.12238312
172	0x3e3cba8d	0.18430538
173	0x3e650421	0.22364856
174	0xbe512a38	-0.20426261
175	0xbba19dca	-0.00493214
176	0xbddc373c	-0.107527226
177	0x3dc82232	0.09772147
178	0xbe9a4254	-0.3012873
179	0x3dfe88f0	0.124284625
180	0x3ef7d4bc	0.4840449
181	0xbe730d7a	-0.2373561
182	0xbe2be571	-0.16786744
183	0x3d27bfe3	0.04095448
184	0x3d0dabb1	0.034587566
185	0x3dfc6e41	0.12325717
186	0xbdda9801	-0.10673524
187	0xbe39ad36	-0.18132481
188	0xbe50adc2	-0.20378783
189	0x3d093653	0.033499073
190	0xbde08738	-0.10963291
191	0xbc47dda0	-0.012198836
192	0xbe9d9e15	-0.3078467
193	0xbde314a5	-0.11087922
194	0x3ea87618	0.32902598
195	0xbe6f553d	-0.2337236
196	0x3dd0d932	0.10197677
197	0x3be16a3f	0.0068791206
198	0x3e044530	0.12917018
199	0x3eb8877e	0.36040872
200	0xbcf21863	-0.029552644
201	0x3e3820b7	0.1798123
202	0xbe1b91e1	-0.15192367
203	0xbe10ead2	-0.14152077
204	0xbe18b55e	-0.14912936
205	0x3e2c851e	0.16847655
206	0xbe2eac26	-0.17057857
207	0x3d3ac9c8	0.04560259
208	0xbe47240f	-0.19447349
209	0x3e9032ff	0.28163907
210	0x3e5e8f5b	0.21734373
211	0xbe474bd3	-0.19462518
212	0x3e160cb1	0.14653279
213	0xbe5417c5	-0.20712192
214	0x3c48cd16	0.012255928
215	0xbdb50662	-0.08839108
216	0xbd9747d3	-0.07386746
217	0x3e11748a	0.14204612
218	0x3d098918	0.03357801
219	0xbdc4064c	-0.095715135
220	0xbe64cffc	-0.22344965
221	0x3e2eb2af	0.1706035
222	0xbe892793	-0.26788005
223	0xbc6b8760	-0.014375538
224	0xbe50301f	-0.20330857
225	0x3eac3a5f	0.33638284
226	0x3d0c8f0a	0.0343161
227	0x3de211dd	0.110385634
228	0xbdc1d233	-0.094639204
229	0x3dce3f28	0.1007064
230	0xbded5e89	-0.11590297
231	0x3dcfd016	0.10147111
232	0xbdb5cc85	-0.088769
233	0xbea4f978	-0.3222158
234	0x3d1a9cc8	0.037747175
235	0xbe44c276	-0.19214806
236	0x3e97150e	0.2950825
237	0xbda49d36	-0.08037798
238	0x3e21eb3e	0.15812394
239	0x3c5a3262	0.013317676
240	0xbe84ff3c	-0.25975978
241	0xbe0e1553	-0.13875322
242	0x3e050af7	0.12992464
243	0xbe156594	-0.1458953
244	0x3ed80043	0.421877
245	0xbdc77dbf	-0.09740781
246	0xbe4334c8	-0.19063103
247	0xbda86638	-0.08222622
248	0xbdc4736e	-0.09592329
249	0x3e0baba6	0.13639697
250	0xbdff144a	-0.12455042
251	0x3e7e2c34	0.2482155
252	0x3de196f3	0.110151194
253	0x3e9dabea	0.30795223
254	0xbe3b44a0	-0.18287897
255	0x3c10a4c2	0.008828344

bneck.3.depth_conv.bias f4 [64]
0	0xbe72a2a0	-0.23694849
1	0xbea17fb7	-0.3154275
2	0xbe5d17ca	-0.21591106
3	0x3e1e6e25	0.15471704
4	0xbe2c3c34	-0.1681984
5	0xbd49c205	-0.049257297
6	0x3e2841af	0.16431306
7	0xbe31acc4	-0.17351061
8	0x3e83a668	0.25712895
9	0x3e39b658	0.18135965
10	0xbe3cb17b	-0.18427078
11	0xbe772db7	-0.24138533
12	0xbe6715c8	-0.22566903
13	0x3e242000	0.16027832
14	0xbe5b13e8	-0.21394312
15	0xbe26c06c	-0.1628434
16	0x3e120ce8	0.14262736
17	0x3d876d0e	0.066125974
18	0x3ed22ae1	0.4104834
19	0xbd4ecbcc	-0.050487325
20	0xbe7a4083	-0.24438672
21	0xbe003c93	-0.12523107
22	0x3eb501c9	0.35352924
23	0x3e0621d0	0.13098836
24	0xbe513780	-0.20431328
25	0xbe276356	-0.16346487
26	0x3e18ec01	0.14933778
27	0x3dc97296	0.09836309
28	0x3de0529d	0.10953257
29	0x3ec63b88	0.38717294
30	0x3ebd8314	0.37014067
31	0x3b3cfa4c	0.0028835712
32	0x3d5063d9	0.050876472
33	0x3e19590f	0.1497538
34	0x3da77761	0.081770666
35	0xbdd3c6d8	-0.10340661
36	0xbd604fa6	-0.05476346
37	0x3caf018d	0.021363044
38	0xbec5c255	-0.38624826
39	0xbe9984ee	-0.2998423
40	0xbda45ece	-0.08025895
41	0x3e9c3900	0.30512238
42	0xbc503a62	-0.012709232
43	0x3e900ecd	0.28136292
44	0x3d065b29	0.03280178
45	0xbe9626d8	-0.2932651
46	0x3ee06d37	0.43833324
47	0x3e01e8b0	0.1268642
48	0xbe41d673	-0.18929462
49	0x3e93b549	0.28849247
50	0xbe7df636	-0.24800953
51	0xbdb92f0c	-0.090421766
52	0x3e42ebcb	0.1903526
53	0xbe6113c4	-0.21980196
54	0xbe47884a	-0.19485584
55	0xbe678eac	-0.22613019
56	0x3ddb1348	0.10697037
57	0xbeb52726	-0.3538143
58	0xbd858f4a	-0.06521471
59	0x3e900625	0.28129688
60	0xbd9da6e6	-0.07697849
61	0xbe6607f3	-0.2246397
62	0xbec3970a	-0.3820117
63	0xbea3cf83	-0.31994256
