pth/model_fold_0.pth (torch, 613050 bytes, 117 tensors)

ScConv.SRU.gn.weight f4 [5]
000000 b7 d4 71 3d 19 77 fc 3e bd 1b e6 3e b7 f3 98 3b
       0.05904075 0.49309614 0.44943038 0.004667725
000010 72 e3 9f 3f
       1.2491286

ScConv.SRU.gn.bias f4 [5]
000000 4b b5 91 bf 6d 1d a1 bd e5 45 9f bf f8 aa 73 3e
       -1.1383451 -0.07866941 -1.2443205 0.23795688
000010 38 47 c3 be
       -0.38140273

ScConv.CRU.squeeze1.weight f4 [1, 2, 1, 1]
000000 0f a5 88 bd 9e 9e ca be
       -0.066721074 -0.3957414

ScConv.CRU.squeeze2.weight f4 [1, 3, 1, 1]
000000 8b a0 38 3e d7 ba 00 be 14 f9 f5 be
       0.18029992 -0.12571274 -0.48041594

ScConv.CRU.GWC.weight f4 [5, 1, 3, 3]
000000 d0 65 47 bd 45 0b 61 be e2 23 46 bd dc b8 84 3c
       -0.04868108 -0.21976955 -0.048374064 0.01620143
000010 5b ab fe 3d f8 15 1b 3d 00 3d 0b 3e fb cf 87 bd
       0.12435027 0.037862748 0.13597488 -0.06631466
000020 af 1d 40 3e 7c 1e 8a 3e 64 5a d8 3d 47 8b 37 3d
       0.18761323 0.26976383 0.10564116 0.04481056
000030 87 64 81 3d ab 22 40 be 7f ce 87 3c 9c 33 93 3e
       0.06318002 -0.18763225 0.016577957 0.28750312
000040 05 27 1f 3d f7 b5 86 3e ce 66 89 bd 40 45 99 3e
       0.03885557 0.26310703 -0.067090616 0.29935646
000050 21 29 59 3e 34 96 3a be 2f d9 53 3e 25 d0 42 3c
       0.21207096 -0.1822136 0.20688318 0.011890446
000060 3d ab 4f 3e fe 64 55 3e b9 1c 30 be ae c7 89 3e
       0.20280166 0.20839307 -0.17198457 0.26910156
000070 d4 c5 86 3e ff 9b 6d bd f8 7e 9b bc e5 57 4e be
       0.26322806 -0.058010098 -0.018981442 -0.20150717
000080 4e 3d d6 3d cd f4 74 3d f7 ea 93 3e f2 e6 f8 3d
       0.10460912 0.059803773 0.288902 0.12153424
000090 6b 55 13 3e 0b 70 8e be 28 e3 4a 3e b3 25 5b be
       0.14388053 -0.27819857 0.19813216 -0.214011
0000a0 b4 7b 3a 3d f0 02 08 3e 9c 8f 3e 3e 8f d0 34 3e
       0.04552813 0.1328237 0.1860947 0.17657684
0000b0 cd 18 4f be
       -0.20224304

ScConv.CRU.GWC.bias f4 [5]
000000 92 82 2a 3e 52 de ec bb 51 e6 44 bd 7c 57 a7 bd
       0.16651371 -0.007228651 -0.04807121 -0.08170983
000010 b1 94 f8 bd
       -0.12137736

ScConv.CRU.PWC1.weight f4 [5, 1, 1, 1]
000000 ab 8b 8f 3e ab ed dd be 8c 97 35 3f 39 09 27 bf
       0.28036246 -0.4334539 0.7093437 -0.6524845
000010 e1 ef 6a be
       -0.22943069

ScConv.CRU.PWC2.weight f4 [4, 1, 1, 1]
000000 68 52 78 3f 40 be 62 3e d5 fa 14 bf b4 eb e8 3c
       0.9700074 0.22142887 -0.5819524 0.028432705

SRU.gn.weight f4 [5]
000000 00 00 80 3f 00 00 80 3f 00 00 80 3f 00 00 80 3f
       1.0 1.0 1.0 1.0
000010 00 00 80 3f
       1.0

SRU.gn.bias f4 [5]
000000 00 00 00 00 00 00 00 00 00 00 00 00 00 00 00 00
       0.0 0.0 0.0 0.0
000010 00 00 00 00
       0.0

CRU.squeeze1.weight f4 [1, 2, 1, 1]
000000 d0 ac 64 3e 80 f8 f9 3c
       0.22331548 0.030514002

CRU.squeeze2.weight f4 [1, 3, 1, 1]
000000 e0 12 13 bf 10 c4 66 bd ec 06 0f 3f
       -0.57450676 -0.056339324 0.55869937

CRU.GWC.weight f4 [5, 1, 3, 3]
000000 3a b8 72 3e c8 d0 51 be ae c3 73 3e 80 67 d2 3d
       0.2370309 -0.204898 0.23805115 0.10273647
000010 e5 36 9e 3e fb 5b 89 3e 90 18 3e be 0a 57 5c 3e
       0.30901256 0.26827988 -0.18564057 0.21517578
000020 1c cd 88 bd 33 94 0a be b2 29 89 be f0 59 fb 3d
       -0.066797465 -0.13533096 -0.26789623 0.122730136
000030 b5 ec 8a 3e 63 e9 77 be e8 d5 06 bd 58 3a 62 3d
       0.27133718 -0.24210124 -0.03291884 0.055231422
000040 da 18 1d 3e 40 e4 96 bc 06 61 bb bd f7 5f aa be
       0.15341511 -0.018419385 -0.09149365 -0.3327634
000050 d2 c7 1c 3e e0 4d 8a be 2c 1e 80 be ba 07 88 be
       0.153106 -0.2701254 -0.2502302 -0.26568395
000060 c6 a8 b8 bd ec 89 d8 3d 3c 07 f9 3d a0 e7 cd bd
       -0.09016566 0.105731815 0.12159583 -0.100539446
000070 8e 64 88 be ff 18 9e 3e 8e 04 0f 3e 92 6c 61 3e
       -0.26639217 0.30878446 0.13966581 0.22014073
000080 48 b6 86 be f8 7a 00 3d 82 9d 33 3e 1a 8d 2c 3e
       -0.26310945 0.031367272 0.17540553 0.16850701
000090 e0 f0 ba bd eb 32 93 be 40 a4 8d 3d 5a 40 2d 3e
       -0.091279745 -0.28749785 0.06916094 0.1691908
0000a0 2e 1d 15 3e d8 b9 08 3e 00 8c 3f bc 9b 9f 88 be
       0.14561912 0.13352144 -0.011691093 -0.2668427
0000b0 9e 3d 67 be
       -0.22582099

CRU.GWC.bias f4 [5]
000000 40 a7 25 3e 78 30 2d bd 9c 3c ba bd 70 97 9b 3c
       0.16177082 -0.04228255 -0.090935916 0.01899311
000010 90 6a 26 be
       -0.16251588

CRU.PWC1.weight f4 [5, 1, 1, 1]
000000 d8 06 9b 3e 34 fb eb 3e 10 93 f3 3d ea 28 0d 3f
       0.3027866 0.4609009 0.11893284 0.55140555
000010 c6 12 36 3f
       0.71122396

CRU.PWC2.weight f4 [4, 1, 1, 1]
000000 72 ce 44 3f b0 61 ce bd 18 7c 8e 3e e8 37 ed be
       0.7687751 -0.10077226 0.2782905 -0.46331716

bneck.0.depth_conv.weight f4 [5, 1, 3, 3]
000000 1d ae 87 3e 39 32 a0 be 85 be 24 3e 89 e9 5e be
       0.26500025 -0.31288317 0.16088302 -0.21768774
000010 7d 53 1d bd 15 84 a4 bd b7 1d 0b be ac 23 47 3e
       -0.0384097 -0.08033005 -0.13585554 0.19447201
000020 9a 92 b8 be 7a 78 9d 3e 5d 9e 8a bd dc 42 19 3e
       -0.36049348 0.3075598 -0.06768487 0.14966911
000030 59 e7 20 be d5 23 07 3e 4b 54 35 be d8 56 07 3e
       -0.15713252 0.13197263 -0.17707936 0.13216722
000040 90 7c 79 3e 36 28 7d 3e 2f 67 e0 bc c8 cb 93 3e
       0.24363923 0.2472237 -0.027392952 0.2886641
000050 db 3e ad be 67 e0 57 3e 50 a4 ad 3e 3a 0c 5e be
       -0.33837017 0.21081696 0.33914423 -0.21684352
000060 98 56 aa be 2c 80 d2 bd 00 e7 35 3b aa b6 f3 bd
       -0.3326919 -0.10278353 0.0027756095 -0.11900075
000070 92 c6 4e be ea 09 78 be d0 78 14 3d 26 c7 42 3e
       -0.20192936 -0.24222532 0.03624803 0.19021282
000080 2e 4b d3 bd 76 92 70 be e4 32 93 3e c8 ec 35 3e
       -0.10317074 -0.2349337 0.28749764 0.17766106
000090 e7 d4 15 3c 4a 82 79 be 74 53 83 3e e2 b9 76 bd
       0.009144998 -0.24366108 0.25649607 -0.060235865
0000a0 52 e6 32 3c ac 74 59 3d 64 c2 9e bc 09 b0 ab be
       0.01091917 0.053089783 -0.019379802 -0.33532742
0000b0 44 58 8a 3e
       0.27020466

bneck.0.depth_conv.bias f4 [5]
000000 c9 7d ae bd dd 6c 76 3d 98 5c f3 bc 99 7e 6b 3c
       -0.08520085 0.060162414 -0.029707238 0.014373445
000010 41 ba fd bd
       -0.12389041

bneck.0.point_conv.weight f4 [32, 5, 1, 1]
000000 b4 bf 38 3c 10 fd 0d be 46 a2 26 bd 82 f3 bf 3e
       0.011276174 -0.13866067 -0.0406821 0.3749047
000010 a0 f8 8c 3e 36 1b b2 be 50 0e d6 3e db ad 96 be
       0.27533436 -0.34786385 0.41807795 -0.29429516
000020 b7 a7 59 3c ab b2 00 3e ac eb 49 be 0b 75 c0 bd
       0.013284615 0.12568156 -0.19718808 -0.09397324
000030 cf 86 cb 3e 21 6f 08 be ff 34 43 3e 34 ae 1e be
       0.39751288 -0.13323642 0.19063185 -0.1549614
000040 c9 a6 dd 3e 9b 2c 92 3e cf 23 12 be 09 12 b4 3c
       0.4329131 0.28549656 -0.14271472 0.021981256
000050 d4 38 81 bd af 1d aa bd cf 9c e4 be a7 ee 93 bd
       -0.06309667 -0.08306443 -0.44650885 -0.07223254
000060 a2 86 be 3e 0a 67 ba 3e 08 7e d7 3d a1 16 4b 3e
       0.37212092 0.36406738 0.105220854 0.19832851
000070 0a ed 84 3e b4 f8 04 bc 8a a7 2a 3d 4e 78 b4 3e
       0.25962096 -0.008115936 0.041663684 0.35248035
000080 23 41 79 be 46 43 89 3e da 45 06 3e 8c 7d a0 be
       -0.24341254 0.26809138 0.13112584 -0.31345785
000090 13 80 74 be 01 cf e1 be 42 6d 38 3e b0 af cf be
       -0.23876981 -0.44103244 0.18010429 -0.40563726
0000a0 df 1b 4a be c7 8d 06 be c7 fa 96 be f3 93 db bd
       -0.19737194 -0.13140021 -0.29488203 -0.107215784
0000b0 87 ca 5f 3e ff 5c 75 be ab cc 9b 3e 52 99 4a be
       0.21854602 -0.23961256 0.30429587 -0.1978505
0000c0 ac d5 c8 3e c4 de 12 3e c6 98 95 3b d2 b4 a0 3d
       0.3922552 0.14342791 0.004565331 0.07846989
0000d0 94 41 be 3d 74 87 ad 3c 2c 9e c9 3e 7b 30 40 be
       0.09289852 0.021182753 0.39378488 -0.18768494
0000e0 8f 40 d7 3e 99 91 a0 be 43 38 9b 3e 8b 72 12 3e
       0.42041442 -0.31361082 0.30316362 0.14301507
0000f0 51 e9 7f be 5b 4c 44 3d 00 27 b7 be 34 66 9a 3e
       -0.24991347 0.04792438 -0.35771942 0.301561
000100 06 9b 94 bd ca ad 68 3e 5e bc f1 3c 72 6a c2 bd
       -0.07256131 0.22722545 0.029508766 -0.09492959
000110 d4 24 e2 3e 19 6e 1a bc ca 22 6d be 1f b5 6b be
       0.44168723 -0.009425663 -0.23157802 -0.23018311
000120 a9 f7 39 bc 62 77 1c 3e 15 2b 26 be 53 55 f2 3e
       -0.011350551 0.15279916 -0.16227372 0.47330722
000130 0b 9a a6 bc 47 5c 41 3d fe 27 17 3e 49 23 19 3e
       -0.020337125 0.047207143 0.1476135 0.14954866
000140 83 e7 8f be 99 b6 e6 bd c0 b3 f3 3d ce f1 05 be
       -0.28106317 -0.112652965 0.11899519 -0.13080522
000150 80 36 2e be c4 18 d1 3e 43 63 eb 3d e7 71 15 be
       -0.17012978 0.40839207 0.11493542 -0.14594232
000160 80 09 b3 bd 83 9a a3 be 5d f7 0f be b8 f8 b7 be
       -0.08742046 -0.3195382 -0.14059205 -0.35931945
000170 dc 4f bd bd 23 3f f4 bd 8d ce a2 be 2f df 8e be
       -0.092437476 -0.11926105 -0.3179821 -0.2790465
000180 b0 30 98 be 1c 6e ad be 33 6f a3 3e df 50 92 3e
       -0.29724646 -0.3387307 0.31920776 0.28577325
000190 43 57 e6 bd 41 5c 89 be 4a 8e ac be 15 16 ee bd
       -0.112471126 -0.26828197 -0.33702308 -0.116253056
0001a0 47 00 69 be b4 af 03 be 3e 39 69 3e f5 61 c7 3e
       -0.22754012 -0.12859994 0.22775742 0.38941923
0001b0 b5 67 97 be 04 91 7a 3e e7 f8 79 be 60 bb 01 bf
       -0.2957131 0.24469382 -0.24411355 -0.50676537
0001c0 ea 6d 5c bd 00 8d 08 3e f8 bb 03 3d 2d 02 bb 3e
       -0.05381576 0.13335037 0.032161683 0.36525097
0001d0 1c cb 4d bd 3c a0 4a 3e f5 29 b6 bd 5c e7 8d be
       -0.05024253 0.19787687 -0.088947214 -0.27715576
0001e0 43 90 26 3e ad 45 65 3e c0 f6 a0 be d4 4f c6 3e
       0.16265969 0.2238986 -0.31438255 0.3873278
0001f0 12 a1 b9 3e af fe 9b bd 36 a7 d3 bd c9 f4 5a be
       0.362557 -0.076169364 -0.10334627 -0.2138244
000200 15 e4 82 3e 73 eb d7 be 6e ca 6a 3e 35 2f 63 be
       0.25564638 -0.4217182 0.22928783 -0.22185977
000210 52 50 a9 be 76 44 f1 bd 33 cd 85 be 2f 64 d5 3e
       -0.33069092 -0.11780636 -0.26133117 0.41677997
000220 a5 95 86 bd b8 4d e5 3a c7 9c 84 3e b2 50 35 be
       -0.06571511 0.0017494475 0.25900862 -0.17706564
000230 e1 eb 3c be 98 22 b3 bd 17 59 ba 3e 39 1d 3e 3e
       -0.18449356 -0.087468326 0.36396095 0.18565835
000240 4c 12 c9 bd e4 94 4d 3d b8 b3 fb 3e 93 b3 0a be
       -0.09817943 0.05019082 0.49160552 -0.13545065
000250 3c bb af 3b fb 6d 85 be 82 0f 76 3e d0 82 94 3d
       0.0053628962 -0.2606047 0.24029353 0.07251513
000260 ca 8d e4 3e 9d 8a 05 be 9b 1e 96 be f8 c6 c5 be
       0.44639426 -0.13041158 -0.29320225 -0.38628364
000270 59 34 26 3d 60 24 75 be 17 c7 93 be f6 c1 13 3e
       0.040577266 -0.23939657 -0.2886283 0.14429459

bneck.0.point_conv.bias f4 [32]
000000 31 6d 3c be 4a 1c d9 3d 08 90 c0 3e 65 20 23 3c
       -0.18401028 0.10601099 0.37609887 0.009956454
000010 5f 6b c3 bd 6d 9b 26 3e 0e 3e d8 3d 40 49 99 be
       -0.09541964 0.16270228 0.10558711 -0.29938698
000020 8a 02 a7 bd 8b 72 9b 3e 92 5b a2 bd 18 10 65 be
       -0.08154781 0.30360827 -0.07927622 -0.2236942
000030 2e 4d da be e2 f4 02 3f 06 14 4c 3c 2a 24 f3 3e
       -0.42637008 0.5115491 0.012455946 0.47488528
000040 83 45 5d bd ad da 8e 3b 0c 2c b3 3d 52 a5 16 3e
       -0.05402137 0.0043595643 0.08748636 0.14711502
000050 61 2a af 3e c9 08 b2 be aa 67 71 be a2 da de bd
       0.3421202 -0.34772328 -0.23574701 -0.10881545
000060 bd 6e 8c 3e ed 74 c9 3e ba e5 5c be f0 1b 84 3e
       0.27428237 0.3934702 -0.21572009 0.25802565
000070 eb 50 86 be 73 a7 6b 3e cd 61 11 3c a1 74 85 be
       -0.2623361 0.23013096 0.008873415 -0.26065543

bneck.0.bn.weight f4 [32]
000000 b7 5b 17 3f 3c 30 3a 3f f9 5d 55 3f 21 f7 47 3f
       0.5912432 0.7272985 0.83346516 0.78111464
000010 a0 c7 39 3f 4b 3c 4c 3f 3b 08 28 3f a2 cf 3a 3f
       0.7257023 0.797795 0.6563756 0.7297307
000020 7b 87 39 3f 21 6f 44 3f 9a 9d 3d 3f 05 2c 2e 3f
       0.7247235 0.7673207 0.74068606 0.6803592
000030 9f 7e 41 3f 71 d8 3e 3f 4e 78 33 3f d3 71 4a 3f
       0.75583833 0.74549013 0.70105445 0.7907993
000040 d0 89 3e 3f fe a8 58 3f b7 ba 24 3f 92 6e 2b 3f
       0.74429035 0.8463286 0.64347404 0.6696559
000050 44 43 5f 3f 8d 22 52 3f 42 d5 2b 3f 2a bf 60 3f
       0.87212014 0.8208397 0.6712228 0.87791693
000060 cb 57 3d 3f 99 bb 35 3f 8a 21 67 3f 80 94 42 3f
       0.73962086 0.70989376 0.9028555 0.76007843
000070 ae fa 48 3f 6e 4b 46 3f f6 e6 1e 3f d2 71 42 3f
       0.78507507 0.77458847 0.6207117 0.75954926

bneck.0.bn.bias f4 [32]
000000 9a 98 57 be 98 7d ef 3b cb a7 a4 bd 8e 4b 04 be
       -0.21054307 0.007308673 -0.080398165 -0.12919447
000010 e6 9c e6 bd 4a 76 98 be ed ac 28 be 72 9f ae bd
       -0.11260395 -0.29777747 -0.16472216 -0.085265055
000020 20 ac b9 3d 4c a9 4a be 7f 10 c6 bd 9d 9c c9 bc
       0.09066033 -0.19791144 -0.09671115 -0.024610812
000030 3f 80 d1 bd a1 4f 83 be e5 f7 5e be e3 ab 94 be
       -0.10229539 -0.2564669 -0.21774252 -0.2903739
000040 8e 7b ad bc 2b 7f 74 be cc f0 20 bd 9a e8 11 be
       -0.02117708 -0.23876636 -0.03929214 -0.14248887
000050 09 98 89 3d 57 ea 47 bd ba f9 3f be 17 17 99 be
       0.067184515 -0.04880747 -0.18747607 -0.2990043
000060 a8 2c 43 bd 4b c1 31 be 01 6b c1 bd 04 3b c2 be
       -0.04765001 -0.17358892 -0.094442375 -0.3793565
000070 55 8a 2c be 8b 64 cd bd 15 7e 49 be 84 78 45 3c
       -0.16849644 -0.10028943 -0.19677003 0.012052659

bneck.0.bn.running_mean f4 [32]
000000 b5 b2 5e be df 9e 16 3e 96 1a b3 3e 01 5d f6 3c
       -0.21747859 0.14709042 0.3498122 0.030073645
000010 84 cc 02 be 71 ff 0e 3e a7 fe ec 3d 8f 13 64 be
       -0.12773329 0.1396463 0.115720086 -0.22273086
000020 0f 78 bd bd aa 0a aa 3e 60 6e 00 be c3 0a 44 be
       -0.09251415 0.3321126 -0.12542105 -0.1914473
000030 ea f0 c2 be 10 c3 01 3f e8 46 28 3d 4b 70 d7 3e
       -0.38074428 0.50688267 0.041083246 0.4207786
000040 4a f6 be bc 1f 6d a4 3c 9f 46 f4 3d 68 a3 09 3e
       -0.0233108 0.020071564 0.119275324 0.13441241
000050 fe c0 be 3e 25 90 be be fa 3c 78 be 75 b4 e7 bd
       0.37256616 -0.3721935 -0.2424201 -0.11313716
000060 f4 d7 7a 3e 8d 20 e9 3e 51 2a 52 be 25 66 7e 3e
       0.24496442 0.45532647 -0.20523955 0.24843653
000070 e8 35 7e be d7 82 92 3e 99 7d 69 3c 15 2b 7a be
       -0.24825251 0.28615448 0.014251136 -0.24430497

bneck.0.bn.running_var f4 [32]
000000 78 3b 61 38 91 55 1b 39 36 0e 84 38 55 db 82 38
       5.3699565e-05 0.00014813828 6.2968975e-05 6.239737e-05
000010 9a 35 94 38 8e 6a c4 38 99 ca 2d 38 be d8 35 39
       7.067174e-05 9.365856e-05 4.1435098e-05 0.00017342248
000020 8e 46 4e 38 a4 c1 df 38 ce 71 6e 38 16 0b dc 38
       4.9179936e-05 0.00010669537 5.684961e-05 0.000104924824
000030 d5 3d bc 38 6b 20 68 38 99 2a 23 38 3a fb 19 39
       8.976056e-05 5.5343302e-05 3.89019e-05 0.00014684806
000040 e3 f0 5c 38 e2 e2 02 39 db bc 83 38 b8 57 d2 38
       5.267643e-05 0.00012482287 6.281744e-05 0.00010029919
000050 fb bf 8d 38 5b 7f a4 38 02 7c 34 38 85 12 ee 38
       6.759163e-05 7.843851e-05 4.3030836e-05 0.00011352174
000060 54 77 c2 38 51 a4 ac 38 be 5a d0 38 de c4 f5 38
       9.2728675e-05 8.2322054e-05 9.935115e-05 0.0001171918
000070 7d d4 44 38 ca da 5f 38 d6 49 c6 38 2c 49 f9 38
       4.6927937e-05 5.3371106e-05 9.455129e-05 0.000118868746

bneck.1.depth_conv.weight f4 [32, 1, 3, 3]
000000 38 75 84 3e 43 6b 13 3e ee 0a dc 3d f0 2f d9 3d
       0.2587068 0.14396386 0.10744272 0.106048465
000010 82 15 3b be 6e 90 3d bd 92 89 60 3d f7 ff ef bd
       -0.18269923 -0.046280317 0.054818697 -0.11718743
000020 e8 37 84 be 18 47 60 be 0a f9 5f be 95 7f 8b be
       -0.25823903 -0.2190212 -0.21872345 -0.27245775
000030 2d 03 08 3e 01 07 83 be 2a ca e9 bd 7b 8a e7 bd
       0.13282461 -0.2559128 -0.11415513 -0.1130571
000040 cd bd 23 3d 5c 59 9e 3d b1 f6 f2 3d f9 07 e1 3d
       0.03997593 0.07731888 0.11863459 0.10987849
000050 f7 42 39 3c 40 5f b3 be 07 d7 8c be e4 5d 67 bd
       0.01130747 -0.35033607 -0.27507803 -0.056486025
000060 41 01 8c be 9c 22 a0 be 71 ba 21 bd 54 e7 71 bd
       -0.27344707 -0.31276405 -0.039484445 -0.059058502
000070 6c 6a 75 bc cb 98 98 be eb d2 04 bd 89 9d 3a be
       -0.014978986 -0.29804072 -0.03242771 -0.18224157
000080 64 5d b2 3e c9 75 ba bd d3 3e a2 bd 9e 01 d4 bd
       0.34836876 -0.09104497 -0.07922139 -0.10351871
000090 e2 1b 89 3e 05 bc 09 3e bd 5b e3 3d cf 12 a9 be
       0.26779085 0.1345063 0.11101482 -0.33022162
0000a0 9b d4 86 3d f9 f2 51 be 8a 8b a9 3d fc d2 01 3e
       0.0658352 -0.20502843 0.08278568 0.1267814
0000b0 40 59 15 3e d3 3c bd be 0a b4 75 3d 6b 6e c7 3e
       0.14584827 -0.36960468 0.05998615 0.3895143
0000c0 bd 89 ef bd 07 34 03 3e 7c 3d 96 3d 89 05 b9 bc
       -0.11696193 0.12812816 0.07335946 -0.022585647
0000d0 63 d2 4a 3c c5 0a 8e be 5e ad 91 be b5 34 f5 3d
       0.012379262 -0.27742592 -0.2845258 0.11972944
0000e0 9d ff 0b 3e 64 4b 5e be c9 df 3d be f7 7b c8 3d
       0.13671727 -0.21708447 -0.18542399 0.097892694
0000f0 40 8f 44 be 38 03 27 be 1f 97 f5 bc be 41 0f be
       -0.1919527 -0.16309822 -0.029979287 -0.13989922
000100 73 1d 11 bd 6d e1 a3 3e 69 be cf bd a4 4d 73 be
       -0.035428476 0.32007924 -0.1014374 -0.23760086
000110 50 30 47 bd bd 8e 89 be 52 73 fd bd d8 75 0a be
       -0.04863006 -0.26866713 -0.12375511 -0.13521516
000120 c7 fe 0b be 57 00 75 3e f9 52 85 3e 77 44 93 3e
       -0.13671409 0.23925911 0.26039866 0.28763172
000130 ac 41 28 bd a3 5c 9c be 78 fc 53 3e 0e d6 da bd
       -0.041078255 -0.30539426 0.20701778 -0.10685359
000140 bb 13 28 3d 80 f2 82 bc 74 96 1c 3e a7 cd f1 bd
       0.04103444 -0.015984774 0.15291768 -0.11806803
000150 63 40 ca bd 9c c6 cb be 05 0a ca 3d a3 86 1e 3e
       -0.09875562 -0.39799964 0.09865192 0.15481047
000160 9c 42 3f be c4 98 2a be 6c cf 67 be cd 12 0d bd
       -0.18677753 -0.16659838 -0.22637719 -0.034441758
000170 fd af 19 3d be 5d 3f 3d ba be 73 be 53 2c 84 3e
       0.03752135 0.04672026 -0.23803225 0.25815067
000180 ad e0 a2 3e c8 c7 94 3e d9 df 64 3e a1 1a 84 be
       0.3181204 0.2905867 0.22351016 -0.25801566
000190 91 34 b7 bc 07 8e 4e 3d 56 0f e9 bb 1d 20 57 3e
       -0.022363933 0.050428417 -0.007112424 0.21008344
0001a0 88 60 bd 3c 60 12 76 be 7f 5e f3 3d 10 a6 82 be
       0.023117319 -0.24030447 0.11883258 -0.2551732
0001b0 65 48 6a be 29 1e 08 be e0 bb 4a 3e 3b 1a 03 3d
       -0.22879179 -0.13292755 0.19798231 0.032007437
0001c0 3d dc 8d be 43 7b c3 3d 1a b8 42 3e 8d bf 0f 3e
       -0.2770709 0.09544995 0.19015542 0.14037915
0001d0 0f a6 16 be fc f9 ea 3e 52 d7 ac 3d 8e f4 23 3e
       -0.14711784 0.45893848 0.084395066 0.16011259
0001e0 82 ca a0 3c 69 28 97 3d 1d 96 a1 bd 7a f4 66 be
       0.019627813 0.073807545 -0.0788996 -0.22554198
0001f0 41 fc 2d 3d 95 89 e2 3d 75 d1 0a bd a3 4b fc ba
       0.042476896 0.11061398 -0.03389116 -0.0019248616
000200 41 f3 7e be 8d 2a 24 be 89 15 87 3d 8e 6d 70 3d
       -0.24897482 -0.16031857 0.065959044 0.05869823
000210 97 62 76 bc 9e 01 82 bd 0b fd a2 be 1b c2 dc bd
       -0.015038154 -0.06347965 -0.3183368 -0.1077921
000220 18 9e 9b be 49 72 47 bc 7c af 28 be 8b 61 29 be
       -0.30394053 -0.012173244 -0.16473192 -0.16541116
000230 6f 18 77 bc f4 45 a5 3e df e7 ae 3e 50 ea cf bd
       -0.015081509 0.32279932 0.3416128 -0.101521134
000240 0a 10 bc be 43 c1 72 be 76 75 de 3d 76 ec 15 be
       -0.36730987 -0.23706536 0.10862248 -0.14640984
000250 ae 22 91 bd 2c e8 33 be ad ff 81 3e 64 67 89 3e
       -0.07086693 -0.17569035 0.25390378 0.26836693
000260 ee fd 6d bd 42 f0 26 be 19 2a 91 3e 12 36 b8 bb
       -0.058103494 -0.16302589 0.2835243 -0.00562168
000270 37 5b 6a bd 25 a9 c7 be 81 93 21 be c4 44 25 be
       -0.057215896 -0.38996235 -0.15778925 -0.16139513
000280 78 d4 a2 bc 16 5a a4 3e fa 21 32 bd 3c 5a 0f 3e
       -0.019876704 0.3209998 -0.043489434 0.13999265
000290 69 8b ed 3d 32 0c 03 be ee de fb bd 40 57 b6 3d
       0.11598856 -0.12797621 -0.1229838 0.0890336
0002a0 e3 a2 6b 3e b6 1c a0 be f7 97 36 3e b8 c9 63 be
       0.23011355 -0.31271905 0.17831407 -0.22244918
0002b0 96 01 93 3e d1 75 14 3e 51 12 26 3d af 4e 71 be
       0.28712147 0.14498068 0.04054481 -0.23565172
0002c0 23 ac 33 3e d4 31 2c be 89 f8 92 3c 20 75 5b 3e
       0.17546134 -0.16815883 0.017940776 0.21431398
0002d0 bb 76 d5 3e a0 44 20 bd 91 83 93 be 88 75 a1 be
       0.41692147 -0.039127946 -0.28811315 -0.31534982
0002e0 8d a9 13 3e 24 58 96 3e 44 ec 32 be 0b a1 11 be
       0.14420147 0.2936412 -0.1747294 -0.1422159
0002f0 17 3e 16 bd c2 0a 1d bd 23 aa 6d 3e 17 de b9 bd
       -0.036680307 -0.038340338 0.23209433 -0.090755634
000300 aa 59 9f 3e f3 91 98 be 88 0a ed bd c4 c4 73 bb
       0.31123096 -0.2979885 -0.11574274 -0.003719614
000310 84 a4 90 be 68 a3 2e 3e 2d ab 08 be 76 1f 82 be
       -0.28250515 0.17054522 -0.13346548 -0.25414628
000320 6a 43 15 be 8b 81 a4 3c 39 fc 7c 3d 8f c5 38 3e
       -0.14576498 0.020081302 0.061763976 0.18044113
000330 21 ba 4f be fa ca 28 be fd 04 20 be 7a fd df bd
       -0.20285846 -0.1648368 -0.15626903 -0.10937019
000340 9b ed a2 3d 9b b3 2c 3e 22 a1 d8 3e 26 cf 16 bd
       0.07955476 0.16865389 0.42310435 -0.036818646
000350 28 21 a0 be d9 be 87 bd ae 0a c0 3e b6 e3 b2 3c
       -0.31275296 -0.06628198 0.37508148 0.021837097
000360 dc d2 80 be 14 73 5d be b2 cb 1f 3e 9e 48 52 be
       -0.25160873 -0.2162593 0.15605047 -0.20535514
000370 4a 05 8e be 06 fc 1f be 05 19 95 bc 2c 84 af 3e
       -0.2773841 -0.15623483 -0.018200407 0.34280527
000380 2d a9 f9 bd 49 a3 8d bd 84 ff a4 3e 79 e1 5c 3c
       -0.12190471 -0.0691591 0.32226193 0.013481491
000390 33 0b 09 3e 80 3e 25 be d3 19 87 3e af 8f 1e 3e
       0.13383178 -0.16137123 0.2638689 0.15484498
0003a0 ab 7e 19 be 87 5e dd bc e8 0b b0 bd 92 c7 1f 3e
       -0.14989726 -0.027022613 -0.08596021 0.15603474
0003b0 6c 85 b5 3e 36 77 d0 bd d9 db ae be ab 50 8f 3e
       0.35453355 -0.10178988 -0.34152105 0.27991232
0003c0 5f 32 9c bc a6 0e 69 be 51 b8 fe be ea cd b5 3e
       -0.019066988 -0.22759494 -0.49749997 0.35508662
0003d0 90 3c 42 3e 03 23 32 be 32 9c 12 3e a0 15 ab be
       0.18968415 -0.17396168 0.14317396 -0.33414936
0003e0 e9 4a 8a 3e 0c 9f b6 bc 2a 42 be bd 46 e1 42 3d
       0.27010277 -0.022292636 -0.092899635 0.04757812
0003f0 e3 f6 4e 3e 97 8a 92 be 27 67 82 bd f2 64 b1 3d
       0.20211367 -0.2862136 -0.06367331 0.08661832

bneck.1.depth_conv.bias f4 [32]
000000 4f 02 e4 bc 66 ac 0a 3e 50 60 7a 3d d6 e5 ee 3d
       -0.027833132 0.13542327 0.061127007 0.116649315
000010 33 0e 4f be fa 1d 31 be 07 d5 2b be cc 14 6f be
       -0.2022026 -0.17296591 -0.16780482 -0.23347777
000020 53 61 78 be 88 04 aa 3d e5 a0 85 bd 10 6b 17 3e
       -0.24255876 0.083016455 -0.06524829 0.14786935
000030 d4 24 28 3e 5b 58 75 be 0e 0f 02 3e f1 af 4f bb
       0.16420299 -0.23959486 0.12701055 -0.0031690563
000040 6e 15 87 3d 1c a9 ae 3b 03 bf c2 bc 83 7b a9 bc
       0.06595884 0.005330218 -0.023772722 -0.020688778
000050 a4 84 cc 3d 34 06 70 3e 78 d7 8b 3c 47 15 ea bd
       0.09986237 0.23439866 0.017070517 -0.114298396
000060 29 6e b2 bd 7c e9 7b 3c 94 81 72 3e c7 98 38 be
       -0.08712418 0.015375491 0.23682243 -0.1802703
000070 ea 1e 5b be 2c 50 08 3e 72 33 1d 3e c7 fc 5b bd
       -0.21398512 0.13311833 0.15351656 -0.053707864

bneck.1.point_conv.weight f4 [64, 32, 1, 1]
000000 a7 98 01 be 6a 4a 37 be 3f 2d 06 be 7f 76 af bd
       -0.12655888 -0.1789948 -0.13103198 -0.08567523
000010 19 dc 32 bd 69 60 b5 3d c1 ed 4d 39 f0 c4 48 bd
       -0.043666933 0.088562794 0.00019638894 -0.04901594
000020 fc 37 d3 be 7f 22 34 bd 00 fa 7e bd 56 dc d1 bc
       -0.4125365 -0.04397821 -0.062250137 -0.02561776
000030 05 98 1a 3d e7 69 9f be ed a5 e5 3d c2 f5 79 3d
       0.037742633 -0.31135485 0.112132885 0.06102539
000040 8d e7 c3 3c 4c 8b 23 be 69 8c 4a be 63 67 31 be
       0.023914123 -0.15971106 -0.19780125 -0.17324595
000050 28 37 96 3e 61 02 26 3e e6 2e 87 bc 00 23 93 be
       0.29338956 0.16211845 -0.016501855 -0.2873764
000060 49 92 4c bc ff 6a 3b 3d b4 88 50 3e 44 47 c8 3d
       -0.012486049 0.045756336 0.20364648 0.09779218
000070 e3 b8 44 bd 9d 89 ba bd 8c ee f0 bd 88 91 2b be
       -0.048027884 -0.09108279 -0.11764249 -0.16754735
000080 3b 15 b2 3c 8d 1f 04 be fe e4 5b bd 8a 06 00 3f
       0.02173864 -0.1290266 -0.05368518 0.5000998
000090 59 ef 5e 3e eb 8b a0 3d 2f 4b c8 bd e6 2b 37 3e
       0.21770991 0.07839187 -0.09779965 0.1788784
0000a0 7f e1 6e be 65 10 7c 3d f1 fe 26 be 9a 9e b6 bd
       -0.23328207 0.061539073 -0.1630819 -0.089169696
0000b0 c3 31 75 3d bb 08 24 bd ff 9d ec bd eb b3 5c bd
       0.05986191 -0.04004739 -0.11553573 -0.05388252
0000c0 45 b0 42 bd c4 cf fc bd 84 f5 03 bd f6 ff 0c bd
       -0.047531385 -0.12344316 -0.032216564 -0.03442379
0000d0 29 f2 14 bd 17 45 b4 3d e5 8c 52 be 2d 82 2b 3e
       -0.036363754 0.0880224 -0.2056156 0.16748877
0000e0 fe 40 51 be 11 8f 26 be ef 50 ae bd 2c 7f 7a be
       -0.20434949 -0.16265513 -0.085115306 -0.24462575
0000f0 bb a8 90 be 72 1a 2d 3e b3 1f c1 bc e6 77 da bb
       -0.2825373 0.1690462 -0.023574686 -0.006667125
000100 f7 32 1e 3e 19 2f 29 3d ff 1f 80 bd 45 42 d2 3d
       0.15449129 0.04130468 -0.06256103 0.10266546
000110 d9 87 a6 be 3b 3f cb bd 0d 6b 19 3e 05 33 1b be
       -0.3252552 -0.0992417 0.14982243 -0.15156181
000120 60 92 1d 3e c1 58 7b 3e db f7 13 3e 42 d7 b3 bc
       0.15387869 0.24545576 0.14450018 -0.021953229
000130 95 c3 71 3d eb 71 ef bd ef a6 6a 3e 87 0c 93 be
       0.059024412 -0.1169165 0.22915243 -0.28720495
000140 e3 77 62 be 8f 5f 28 3e 88 92 68 bd 17 ca 12 be
       -0.22116046 0.16442703 -0.056780368 -0.14334904
000150 c0 e7 b6 bd 71 11 a1 3e bc 8f 5c 3d c2 05 d3 bc
       -0.089309216 0.3145862 0.053848013 -0.025759581
000160 7e 45 5c 3c db c9 74 3e 7e 53 55 bd 0f 9b 08 3e
       0.013444303 0.23905127 -0.052081577 0.133404
000170 22 dd de 3d 1d 6e 1f 3e f6 93 78 3d 21 ad 5f 3e
       0.108820215 0.15569349 0.06068798 0.21843387
000180 c9 72 22 bd 03 2a c0 bd 2d 55 2b bd 04 d3 1f 3e
       -0.03966025 -0.09383013 -0.041829277 0.1560784
000190 0e 4f cc 3c 07 36 9e be c0 0a 82 3e f7 8e d3 bd
       0.02494004 -0.30900595 0.25398827 -0.10330003
0001a0 6b 57 44 3e c3 a1 4e be 32 46 34 3a 73 71 86 3e
       0.19173972 -0.20178895 0.0006876915 0.2625843
0001b0 ec 52 b9 be 7d a4 2c bb a7 5c 25 3e ab a6 d5 3d
       -0.36196077 -0.002634316 0.16148625 0.1043218
0001c0 63 f7 7e 3e 3a 8d 22 3e 4c 0f 0b be a3 fb 95 3d
       0.24899058 0.15874186 -0.13580054 0.073233865
0001d0 12 fd 81 3d 43 fe 22 3e db aa ff bc ae 0a f6 3d
       0.063470975 0.15917306 -0.0312094 0.12013756
0001e0 ab 80 05 be a8 5f 65 3d 04 69 99 bd 41 7c 2f 3e
       -0.13037364 0.055999428 -0.07490733 0.17137243
0001f0 3b c1 98 3d 1c 77 10 be 82 4c 5e be 87 c6 89 3d
       0.07458731 -0.14107937 -0.21708873 0.06727319
000200 ab 5d 93 be 32 47 da bd 77 69 4a 3d ea 5c 8e 3d
       -0.287824 -0.10658111 0.049416985 0.06951316
000210 8c 47 82 3e 00 2a dc bb b5 d9 94 3d 5c 23 5c be
       0.2544521 -0.006718874 0.07268087 -0.21497864
000220 a9 f2 b2 3d 3d d6 86 be 19 d7 9c bd 36 50 a8 bd
       0.0873769 -0.26335326 -0.07658214 -0.08218424
000230 2e 51 ed bd af ad f1 3d e7 65 32 3e 48 67 e0 3d
       -0.115877494 0.11800706 0.17421685 0.10957199
000240 f1 8e 24 be dd 0a a2 be c6 29 2b be 0d aa bd 3d
       -0.16070153 -0.31648913 -0.16715154 0.0926095
000250 60 9a 17 3e c2 4b 9e bc 1f 7f c6 bd bd 90 9f 3e
       0.14804983 -0.019323234 -0.09692215 0.31165114
000260 13 9a 0f bc ae a0 72 bb 66 84 42 3e da 70 98 bc
       -0.0087647615 -0.0037022042 0.18995818 -0.0186085
000270 08 52 b6 bd 70 34 06 3e d0 75 d7 bd cf a5 1f be
       -0.08902365 0.13105941 -0.10520518 -0.15590595
000280 82 66 9b be af 3e 5f 3e ce 3a 17 3e 53 27 59 be
       -0.30351645 0.21801256 0.14768526 -0.21206407
000290 83 b4 72 bc 72 67 d4 bd 20 e8 48 bd c4 53 00 be
       -0.014813545 -0.10371293 -0.049049497 -0.12531954
0002a0 54 ad 51 be eb 40 94 3d 28 ae 29 be 75 84 5d be
       -0.20476276 0.072389446 -0.16570342 -0.2163256
0002b0 3f b7 e0 bd ba 5b 9e be 83 c3 2f 3d 11 de 26 3e
       -0.109724514 -0.30929357 0.042911064 0.16295649
0002c0 d3 7e 6d bd 01 f0 5a 3e cb 27 b8 bc 06 9c 3c 3d
       -0.057982277 0.21380617 -0.022479912 0.046047233
0002d0 7e 39 ae 3d e0 73 56 3d fd 41 99 3e 3a 30 33 bd
       0.085070595 0.0523566 0.29933158 -0.043747164
0002e0 80 60 e8 3d b0 b5 02 be 1a b3 16 3d 3d de 93 bc
       0.11346531 -0.12764621 0.0367919 -0.018050307
0002f0 d2 52 04 be bf 01 56 3e 98 00 84 3d 40 97 84 bd
       -0.12922218 0.20899104 0.06445426 -0.06474161
000300 2c 73 e7 3c f0 4f de bd 79 e7 2a be 87 89 e0 bd
       0.02825316 -0.108550906 -0.16689862 -0.10963731
000310 30 17 14 3e f6 58 05 3e 4c f8 1d be f5 76 6d 3c
       0.1446197 0.13022217 -0.15426749 0.014493694
000320 76 c7 df 3d 2e 28 13 be c3 73 89 3e a5 ea 6f bc
       0.10926716 -0.14370796 0.26846132 -0.014643346
000330 cb 04 43 be cc 3f 28 be 4d c3 3d be b5 9b 01 3e
       -0.19044797 -0.16430587 -0.18531533 0.12657054
000340 3a d0 f7 3d 73 ab 06 bd 52 a8 e9 3d 8c 07 f4 bd
       0.12100263 -0.03287835 0.11409058 -0.11915502
000350 72 1b e0 be 1f 15 81 bc 07 f0 3f bd 1e ca 1b 3d
       -0.4377094 -0.015757142 -0.046859767 0.03803455
000360 d4 8c d2 bd dc d6 fb bc 4e 10 03 3d 9c 6e 5f bd
       -0.10280767 -0.030742101 0.03199797 -0.054548845
000370 a6 e0 ed 3d 97 d3 bf bd 96 eb aa 3c 43 90 1b be
       0.11615114 -0.093665294 0.02086429 -0.1519175
000380 5b b5 83 3d 08 de 0b 3e 99 7e cd bc 90 36 a0 bd
       0.06431075 0.13658917 -0.02508478 -0.07822907
000390 5a 7f 06 3e d2 9b 9c bd 47 e1 68 bb c1 c7 9a 3d
       0.13134518 -0.07646908 -0.0035534666 0.07557631
0003a0 c0 7b 88 3e f2 fa a5 bd 67 d4 bf 3e a4 4b 32 be
       0.26656914 -0.08104505 0.37466738 -0.17411667
0003b0 46 9d ac bd 93 38 c2 3d 80 ff 2d be 42 5b c3 3a
       -0.08428435 0.09483447 -0.16991997 0.0014904516
0003c0 5a dd 06 be b3 f8 d6 bd 15 6b f6 bd a6 ea ca bd
       -0.13170376 -0.10496654 -0.12032143 -0.09908037
0003d0 10 19 f3 be 22 74 04 3e 9f b3 dd bc f3 43 33 bc
       -0.4748006 0.12934926 -0.02706319 -0.010941493
0003e0 f6 ac c7 bd a8 b3 20 3e 2b f3 0e 3a ca e6 e1 3c
       -0.097497866 0.15693533 0.0005453105 0.02757587
0003f0 77 8d 9f bd 19 dd ff bd ed 3a b0 bc 05 b6 aa bd
       -0.07790654 -0.12493343 -0.021512473 -0.08335499

bneck.1.point_conv.bias f4 [64]
000000 f7 f0 b4 3d a7 5b b2 bd 5a fa a5 bd 50 f4 8e bb
       0.08835023 -0.087088875 -0.081043914 -0.0043626204
000010 c5 d8 72 bd 46 8c f9 bd ba 50 26 bd 66 bc f3 3c
       -0.05928876 -0.12184958 -0.04060433 0.029752921
000020 94 e8 8b bd d0 6c ae bd 17 8e 8a bd c6 82 5d bd
       -0.0683147 -0.08516848 -0.06765383 -0.054079793
000030 e8 79 30 3d fc 5a be bd f3 c1 e5 bc be 74 b2 39
       0.04308501 -0.09294698 -0.028046584 0.00034037785
000040 d3 8a 60 3d ed a0 5e bd d0 03 97 bd 8e a4 e1 bd
       0.054819893 -0.05435269 -0.07373774 -0.110177144
000050 e9 c3 d9 3b 68 94 b3 bc 84 be 18 bd 94 d6 ec bd
       0.0066456688 -0.021921352 -0.037291065 -0.11564365
000060 07 ac 82 bd 86 42 03 be 3b ac ad bd d3 58 a4 3d
       -0.06380468 -0.12818345 -0.08480116 0.080247544
000070 3d ea be bc b5 28 af 3c 52 a2 dd bd fc 30 e1 3d
       -0.023305053 0.021381715 -0.10821976 0.10995671
000080 a3 9a bb 3d 50 a1 8f bd 61 74 9c bd 41 6f be 3c
       0.09160354 -0.0701319 -0.07639385 0.02324641
000090 ba cd ac 3b c9 17 0b be f4 6a cd bd e0 c3 35 3d
       0.005273548 -0.13583292 -0.10030165 0.044376254
0000a0 80 e9 b0 bd b6 09 6f bd bb 85 04 3d 5d 8e 9e bd
       -0.086382866 -0.05835887 0.032354098 -0.077419974
0000b0 b4 8e 80 bd 66 53 23 3d 6c 63 7e 3b 4c 45 2a bd
       -0.062772185 0.039874457 0.0038816584 -0.041569993
0000c0 7d 20 dd 3d ea 20 ff bd 34 f4 77 bd de 46 8d bd
       0.10797212 -0.1245745 -0.060535625 -0.068982825
0000d0 f9 45 d4 bd cd d7 ee 3d 31 dd e9 bd 48 78 66 3c
       -0.10364909 0.116622545 -0.11419142 0.014066763
0000e0 90 ed 01 3d e5 41 7c 3c ea c4 8e 3d e8 98 25 bd
       0.031720698 0.01539657 0.06971152 -0.040429026
0000f0 b4 53 c1 3c 67 c7 13 bd a9 a0 e8 bd af d4 da 3c
       0.023599483 -0.036078837 -0.113587685 0.026712744

bneck.1.bn.weight f4 [64]
000000 2e 75 35 3f 73 14 47 3f 9b 3f 4f 3f 1a 26 4f 3f
       0.70881927 0.7776558 0.8095643 0.80917513
000010 37 70 5d 3f 44 e6 4a 3f 25 df 35 3f f9 ad 43 3f
       0.8649935 0.7925761 0.71043617 0.76437336
000020 42 80 4b 3f 70 18 56 3f da 27 47 3f f1 c3 4c 3f
       0.7949258 0.8363104 0.77795184 0.7998648
000030 ec ca 2a 3f f5 36 3f 3f a1 2c 63 3f 4b a5 47 3f
       0.66715884 0.7469323 0.88739973 0.7798659
000040 ac 1c 3e 3f 71 f1 23 3f fa 18 4e 3f 53 a3 44 3f
       0.742625 0.64040285 0.8050686 0.76811713
000050 e4 d2 51 3f 4f b7 46 3f 38 a1 40 3f d5 c0 3f 3f
       0.8196242 0.77623457 0.75246 0.74903613
000060 4f 52 44 3f dc 4b 36 3f 6b 88 34 3f 6c f3 4d 3f
       0.7668809 0.712095 0.7052066 0.8044956
000070 de 65 42 3f 12 34 41 3f b2 74 49 3f fe 4f 31 3f
       0.75936687 0.7547008 0.7869369 0.69262683
000080 a6 82 3a 3f 29 93 3c 3f a5 1d 3c 3f 26 41 3c 3f
       0.72855604 0.7366205 0.73482734 0.7353691
000090 d7 9c 49 3f 62 5b 45 3f b8 d5 49 3f 67 43 51 3f
       0.78754944 0.77092564 0.78841734 0.8174347
0000a0 a8 63 20 3f ce a6 49 3f 0f b6 40 3f c4 6f 2e 3f
       0.62652063 0.7877015 0.752778 0.6813929
0000b0 ae 05 32 3f 64 1f 37 3f fa 68 41 3f ef eb 23 3f
       0.69539917 0.71532273 0.75550807 0.6403188
0000c0 dc 32 3a 3f 99 69 40 3f d7 3d 41 3f da 63 3a 3f
       0.72733855 0.7516113 0.75484985 0.7280861
0000d0 25 9f 3e 3f c9 17 49 3f 68 a8 4b 3f 0d 45 5f 3f
       0.74461585 0.7855192 0.7955384 0.8721474
0000e0 b6 d1 42 3f 34 1e 3b 3f ae 28 41 3f 52 83 40 3f
       0.76101243 0.7309296 0.754527 0.7520038
0000f0 31 db 48 3f ef 2d 58 3f 06 d4 4d 3f b6 57 38 3f
       0.7845946 0.8444509 0.8040165 0.72008836

bneck.1.bn.bias f4 [64]
000000 38 c9 78 3d ee 35 93 bd b5 33 66 be 5a 5c d3 be
       0.060738772 -0.07188021 -0.22480662 -0.41281396
000010 59 bb e9 bd 5f 80 0f bc db 0d a5 be 32 c0 65 be
       -0.11412687 -0.008758633 -0.32237133 -0.22436598
000020 ed 6f 4a be 7d 4c 12 be f2 f3 22 be 2e 08 15 be
       -0.19769259 -0.1428699 -0.1591337 -0.14553902
000030 eb 07 26 be e7 60 2a be 2e 93 75 be 6d 64 bb bd
       -0.16213958 -0.16638528 -0.23981926 -0.09150014
000040 39 13 05 bd 42 70 21 be 94 0c 80 be 69 ef 11 bc
       -0.032489035 -0.15765479 -0.25009596 -0.0089071775
000050 61 c9 2a be 6d 51 16 be df 18 db bd 45 ab 8e be
       -0.16678382 -0.14679499 -0.10698103 -0.27865043
000060 27 23 ed bd dc 84 25 be a2 fc 02 be 03 e4 49 be
       -0.115789704 -0.16163963 -0.12791684 -0.19715886
000070 62 95 af bd f3 8b 87 be 5e c8 42 be ab 2c 0c be
       -0.085734144 -0.2647396 -0.19021747 -0.13688914
000080 99 ea 7f bc 71 71 66 be 96 2a a1 be 71 4e 3b 3d
       -0.015619897 -0.22504212 -0.31477803 0.045729104
000090 35 dc 03 bd 06 3e 6c be 63 42 43 be 11 91 e5 be
       -0.032192428 -0.23070535 -0.19068293 -0.4483724
0000a0 bb b0 21 be b2 2d 43 bd d7 60 04 be e4 24 6a be
       -0.15790074 -0.047651 -0.12927566 -0.22865635
0000b0 64 1f 9b be 5f 31 a2 be 64 a2 f1 bd d9 ba 79 be
       -0.30297387 -0.31678292 -0.11798552 -0.24387683
0000c0 d7 d8 80 be 16 8c 2c bd c1 f1 26 be b7 67 2f be
       -0.25165436 -0.042125784 -0.1630316 -0.17129408
0000d0 63 d7 20 bd 98 b2 01 be b1 7d ee bd f4 68 1a be
       -0.03926791 -0.12665784 -0.116450675 -0.15079099
0000e0 36 b1 56 be 4b 42 a9 bd 67 11 37 be b1 4b 20 be
       -0.20966038 -0.082645975 -0.17877732 -0.15653874
0000f0 fc 30 ee bd a4 0f c1 bd e2 59 14 bd 2e 7a a4 be
       -0.11630437 -0.09426811 -0.03621853 -0.32124466

bneck.1.bn.running_mean f4 [64]
000000 19 56 97 3e 98 5d c6 3d f6 08 d7 3d d3 39 1b bd
       0.29557875 0.0968582 0.10499756 -0.037896942
000010 e4 3c 58 3d 44 6a 20 bc 88 6f de bd ba 74 9f bd
       0.052792445 -0.009790961 -0.10861117 -0.07785936
000020 26 c1 46 be f7 99 4f be 12 bf d7 3b 7f a6 e8 3c
       -0.19409618 -0.20273577 0.0065840567 0.028399704
000030 df ae 64 bd 50 0a e1 bd 64 88 41 bd 98 79 15 be
       -0.055830833 -0.10988295 -0.047249213 -0.14597166
000040 d9 82 b0 3e f7 5f 8a be 14 fc 62 3d 68 3e 0d be
       0.3447483 -0.2702634 0.05541618 -0.13793337
000050 f2 50 fe 3d f4 51 e4 bd e2 28 ae 3d 9f c9 93 3d
       0.12417783 -0.11148444 0.085038915 0.072161905
000060 58 d0 d4 bd ae 40 24 3d cd 6d 38 be ae 25 38 3e
       -0.10391301 0.040100746 -0.18010636 0.17983124
000070 8b 7c 44 bd e8 93 e9 3d 17 d9 8c bc b9 cb 35 bd
       -0.047970336 0.11405164 -0.01719336 -0.04438374
000080 29 1f 73 3e 08 27 bb 3b 71 22 f2 bd 9b 14 a5 bc
       0.23742355 0.00571144 -0.118229754 -0.020151427
000090 5b 81 e4 3d 53 de 70 be f5 3a 8f 3a 48 3a de 3d
       0.11157485 -0.2352231 0.0010927605 0.1085096
0000a0 e6 67 ac 3b 83 96 3b be 6a 8a 5f ba 82 ff 21 3d
       0.005261409 -0.18319134 -0.00085274 0.039550312
0000b0 32 51 55 be a3 4e 5a 3e 5b 58 e2 3d 6b 4b 5a 3d
       -0.20831755 0.2131906 0.11052009 0.05329458
0000c0 ab b7 fb 3d 51 37 95 bd ac 2c 7b bd 18 ae 02 bd
       0.12290891 -0.072859414 -0.0613219 -0.03190431
0000d0 10 83 bd 3d c2 fa bb 3e 54 b1 1b be cd 92 e4 3d
       0.09253514 0.3671475 -0.15204364 0.111608125
0000e0 aa ba fd bd fb 59 02 bd cf 50 1c be 3c dd f1 bd
       -0.12389119 -0.031824093 -0.15265201 -0.11809775
0000f0 52 bc 5d bd 7a 55 cc bd 43 1b c6 bd 06 04 0e 3e
       -0.054134674 -0.09977241 -0.096731685 0.13868722

bneck.1.bn.running_var f4 [64]
000000 4d 8e 07 3d 29 85 bb 3c c5 bd e1 3c bf 99 e4 3c
       0.033094693 0.022890644 0.02755631 0.027905343
000010 f1 a5 01 3d bc 0e 00 3d cc a4 de 3c 63 36 09 3d
       0.031652395 0.03126405 0.02717819 0.033499133
000020 97 0c 19 3d 50 15 9d 3c b2 52 ba 3c e0 c8 b3 3c
       0.037365522 0.019175202 0.02274451 0.02194637
000030 24 b1 09 3d cf 48 e5 3c b7 9e 01 3d 0b c5 e2 3c
       0.0336162 0.02798882 0.031645503 0.027681848
000040 98 f0 dd 3c b6 0f c5 3c 8a f0 c1 3c ca 21 c2 3c
       0.027092263 0.024055343 0.023674268 0.023697753
000050 bd 2e f6 3c 3e 00 3e 3d 07 e9 b2 3c fd b2 ec 3c
       0.030051583 0.04638695 0.021839632 0.028893942
000060 4b 19 bc 3c 7b e3 07 3d 45 d8 e2 3c 5a e3 cc 3c
       0.02296128 0.033175927 0.027691016 0.025010753
000070 31 f1 b8 3c 55 6d 0b 3d 55 7a 9b 3c df 5e b2 3c
       0.022575947 0.034039814 0.01897923 0.021773754
000080 6a e1 e3 3c 84 6d ea 3c 8d 66 d0 3c 35 94 bb 3c
       0.027817447 0.028616674 0.025439525 0.022897819
000090 88 47 0e 3d 81 45 cc 3c b0 5d a7 3c a9 82 f1 3c
       0.034736186 0.024935486 0.020430416 0.029481249
0000a0 41 e0 25 3d 54 aa 23 3d b3 71 05 3d 66 f3 c3 3c
       0.04049707 0.03995736 0.032579135 0.023919772
0000b0 1c dc e1 3c d7 e5 12 3d 2c c8 d8 3c 9c 67 1a 3d
       0.027570777 0.035863724 0.026462637 0.037696466
0000c0 ba d0 c8 3c f1 33 06 3d 90 83 f4 3c 73 bc 96 3c
       0.024513591 0.03276438 0.02984789 0.018400406
0000d0 47 86 e5 3c fa 24 15 3d 58 2a eb 3c c4 2e b4 3c
       0.02801813 0.036412217 0.028706715 0.021994956
0000e0 81 a6 d6 3c 0b e7 e1 3c 6c 48 1b 3d a8 b4 b8 3c
       0.026202442 0.02757599 0.037910864 0.022547081
0000f0 25 31 0d 3d df 37 fe 3c 8f ad ef 3c b0 f3 ac 3c
       0.034470696 0.0310325 0.029257564 0.021112293

bneck.3.depth_conv.weight f4 [64, 1, 3, 3]
000000 67 f1 53 be fa b3 81 3d 9a da 89 3e ec fc 74 3e
       -0.20697556 0.06333156 0.26924592 0.23924607
000010 2b 53 81 be 8d b8 45 3e 0a ae 98 bc 05 d8 30 be
       -0.25258765 0.19308682 -0.018637676 -0.17269905
000020 74 00 39 3c f1 a1 c5 bd 0e ca a4 3d 13 52 1b bd
       0.011291612 -0.096500285 0.080463514 -0.03792007
000030 c6 01 04 3e 6d 85 2b 3c 9f 9f 04 3e 16 57 bc 3e
       0.12891302 0.010468823 0.12951516 0.3678519
000040 8e 3c 95 be 61 1f 55 be 39 e2 8b bd 54 00 8f 3e
       -0.29147762 -0.20812751 -0.06830258 0.27929938
000050 85 5d f0 bd d0 c4 6e be 09 5a d7 3e b6 a0 7c bd
       -0.117365874 -0.23317266 0.4206088 -0.061676703
000060 bc 47 15 3d 5c c2 c0 bd 91 8a 7e be b0 a8 d4 3c
       0.036445364 -0.09412071 -0.24857546 0.025959343
000070 40 e9 04 bd f8 00 b5 3c af dc 0b 3e 28 51 5c be
       -0.032449007 0.022095188 0.13658403 -0.21515334
000080 91 e6 55 3e 98 6f af be 77 5e ac 3e ba 87 0d be
       0.20888735 -0.34264827 0.3366582 -0.13821307
000090 06 30 1c be b8 b5 bd 3e b6 9e 77 be 91 ec 77 bd
       -0.15252694 0.37052703 -0.24181637 -0.06052834
0000a0 85 f9 02 3d f3 1b 8c 3e 82 e7 05 be 52 39 08 be
       0.03197624 0.27365074 -0.13076594 -0.13303116
0000b0 3f da 21 3e 4b f1 9a 3d 98 22 53 be 15 6c 83 be
       0.1580591 0.07565554 -0.20618665 -0.25668398
0000c0 67 cd db bd e2 f7 db 3d 0f 60 a0 3d 6f 81 a4 3e
       -0.10732537 0.10740639 0.07830822 0.3213
0000d0 56 0b aa bd c1 56 8e 3e 4f e0 63 bd 55 15 3b 3e
       -0.083029434 0.27800563 -0.05563384 0.18269856
0000e0 db f9 44 be 5d aa a7 be dc 09 a0 bd 4f 4d 9c bd
       -0.19235937 -0.32747164 -0.078143805 -0.07631933
0000f0 fc ae bd 3e 11 6f 22 be 9e ef 8a 3e 5c 72 0e 3e
       0.37047565 -0.15862681 0.27135938 0.13910812
000100 3a 1e 55 be 59 72 52 3e e1 1c b8 3e 54 16 bf bd
       -0.20812312 0.20551433 0.35959533 -0.093304306
000110 76 61 c0 be 14 0f 1d 3e dd fd 2c 3e 7d ef 3f be
       -0.37574357 0.15337783 0.16893716 -0.18743701
000120 a6 37 4f bd 81 41 22 be ca ca c2 3e 41 0f 82 bc
       -0.05059018 -0.158453 0.3804534 -0.015876414
000130 0c 0f bf bd 12 b4 98 3e b2 5e 25 3d 96 c8 c2 3d
       -0.09329042 0.29824883 0.04037351 0.09510915
000140 90 50 86 be 05 56 37 bd 1e a7 5d 3e 27 bd 12 3e
       -0.2623334 -0.04475977 0.21645781 0.14329968
000150 1c e0 e9 3d 46 6f b9 be 53 02 89 bc 43 52 53 3e
       0.114196986 -0.36217707 -0.016724741 0.20636849
000160 7a 23 bd 3d 55 9f 8a be b3 80 f1 3c 6e 48 25 3e
       0.09235282 -0.27074686 0.029480314 0.16140911
000170 8a 4d 07 be 51 11 c9 be ff 54 d2 3c 0f f4 55 3e
       -0.13213173 -0.39271024 0.025675295 0.20893882
000180 ea 90 83 3e db 72 83 be b8 63 00 3e 3c 49 ae bd
       0.25696498 -0.25673565 0.1253804 -0.08510062
000190 ef a9 8a be 3b df aa be 8b 5b 36 3e d4 9b 05 bd
       -0.27082774 -0.33373436 0.17808358 -0.032619312
0001a0 b9 a6 01 3e e4 bb 03 bd f5 b4 80 be c2 12 99 3e
       0.12661256 -0.03216161 -0.2513806 0.29897124
0001b0 48 39 00 3c fb f0 40 bd 88 6e db 3d 18 ea c6 3d
       0.007826157 -0.047104817 0.107144415 0.097126186
0001c0 12 3c 1e be 11 5d 57 3e 25 91 62 3d 77 4b 46 3e
       -0.15452603 0.21031596 0.0553142 0.19364725
0001d0 d1 11 ea be ef af 1d 3e 1d e7 92 3d a5 7e 6b bd
       -0.45716718 0.15399145 0.071729876 -0.057493825
0001e0 2c 13 87 be a1 ad b0 3e 14 19 20 be 10 53 e9 3d
       -0.26381814 0.34507468 -0.15634567 0.11392796
0001f0 01 55 93 be a6 7a e4 3d 60 1e cf bd ed e3 bb be
       -0.2877579 0.11156206 -0.101132154 -0.3669733
000200 36 1d 49 3e 03 72 99 be c1 f0 05 3e 2d a9 92 3e
       0.1964005 -0.29969797 0.13080122 0.28644696
000210 ef fc b2 3d fc 3a 83 be c1 3f 80 3e 17 38 a5 be
       0.087396495 -0.2563094 0.2504864 -0.32269356
000220 ac b6 87 3d e1 ac 49 3e e2 a6 b8 3d 47 4d 71 3c
       0.06626639 0.19694854 0.09016205 0.014727897
000230 09 92 df bd 9e 8b 9d bc 71 76 ca be e4 50 64 3e
       -0.10916526 -0.019231614 -0.3954349 0.22296482
000240 0d a0 87 be 8f 45 07 be 51 6f 66 3e 76 7a 83 be
       -0.26489297 -0.13210128 0.22503401 -0.25679368
000250 4e 1f aa 3e 99 a8 31 3e 0b a9 d8 bd b8 4a 94 3d
       0.3322701 0.17349471 -0.105791174 0.07240814
000260 b9 d3 00 be e6 8b ec 3d 9c c4 d4 3d 0f 82 1e be
       -0.12580766 0.11550121 0.10389063 -0.15479301
000270 a3 14 9e be bc 71 7e bd be 53 0b 3d e6 92 0e 3e
       -0.3087512 -0.062120184 0.03401541 0.13923225
000280 97 2c d6 bd fd 35 85 3e bf a8 2a bd c9 40 65 be
       -0.104577236 0.26017752 -0.041664835 -0.22387995
000290 e9 bc b9 3e 96 35 0f be aa 32 31 3d 08 47 7d be
       0.3627694 -0.13985285 0.043261208 -0.24734128
0002a0 e5 38 9e 3e 14 78 30 3e 84 6e 61 be 27 f8 69 3e
       0.30902782 0.17233306 -0.22014815 0.22848569
0002b0 a4 8e 8f be 92 b9 0e bd fa 49 30 3e b2 ea 63 3e
       -0.28038514 -0.034844942 0.1721572 0.22257498
0002c0 c9 bb a0 be 0b ee 0c 3e 93 49 dc bc e2 ac 42 3e
       -0.3139327 0.13762681 -0.026890552 0.19011262
0002d0 6f 98 14 bd 5c 6b 72 be 5f 78 ca 3e a3 f3 00 3e
       -0.036278185 -0.23673767 0.3954496 0.1259294
0002e0 d0 be 67 be 9e 3e ac bd f8 a3 73 be c1 cc 9b 3e
       -0.22631383 -0.08410381 -0.23793018 0.30429652
0002f0 3e fd 7f 3d c7 a5 40 bd 6b 02 a4 3e 43 fe e4 3d
       0.06249737 -0.047033098 0.32033095 0.11181309
000300 85 cd 4d be fc ae 3c 3e 26 f6 f5 bd 7b 72 6c 3e
       -0.2009793 0.18426126 -0.1200984 0.23090546
000310 3d c6 28 be c6 19 64 bd 0c 82 70 3d 23 09 33 be
       -0.16481872 -0.055688642 0.058717772 -0.17483954
000320 61 21 5e bd d7 8d 5f be 36 5c 5b bd 31 80 85 be
       -0.05423105 -0.21831451 -0.053554736 -0.26074365
000330 c3 87 11 3e f2 22 bc 3e 91 ee 10 be 2d fb 77 be
       0.14211945 0.3674541 -0.14153506 -0.2421691
000340 a8 90 64 3e 65 63 4e 3e 45 62 60 3e a8 0e 43 be
       0.22320807 0.20155104 0.21912487 -0.1904856
000350 e1 d5 25 be 06 74 c5 bd bc 30 8c 3d 16 3c 8a 3d
       -0.1619487 -0.0964127 0.06845233 0.06749742
000360 88 be 99 bd 99 73 8a be 88 fb c6 bd 6c cc b7 3e
       -0.07507044 -0.2704132 -0.097159445 0.3589815
000370 39 13 62 be 0b ef 8e 3d de 07 39 be 56 b1 b7 3d
       -0.22077645 0.069791876 -0.18069407 0.08969371
000380 ab a8 55 3e 73 69 97 bd 20 b2 57 3e 4c db c3 bd
       0.20865123 -0.0739316 0.21064043 -0.09563312
000390 6d 1e 6a bd 8a 37 7d be d2 dc 97 3e 49 29 e7 bd
       -0.057157923 -0.24728218 0.2966066 -0.112871714
0003a0 29 c4 e3 3d 39 a3 83 bc 8c ed 8f 3e 53 73 58 3e
       0.11121399 -0.016069042 0.2811092 0.21137743
0003b0 af 7b 22 be c2 05 72 ba 0d bc 8d be 78 4c 0d bc
       -0.15867494 -0.00092324254 -0.27682534 -0.008624189
0003c0 21 4c 32 be 1f f8 0d be fe 33 b3 bc 4a 5e a3 bd
       -0.17411853 -0.13864182 -0.021875378 -0.079769686
0003d0 b4 bc 4e be d6 11 11 be 58 94 92 3e a9 29 8e be
       -0.20189172 -0.1416696 0.28628802 -0.2776616
0003e0 d2 4d 52 3e 20 1b 81 be 37 9c 74 3e c6 01 9f 3d
       0.20537499 -0.25216007 0.23887716 0.0776401
0003f0 25 cf 1f 3e 76 05 9b bd e7 43 d2 3d 95 13 17 bc
       0.15606363 -0.07569401 0.102668576 -0.009220977

bneck.3.depth_conv.bias f4 [64]
000000 8a aa 2c be 89 71 96 be 4c c8 92 bd 70 32 d7 bd
       -0.1686193 -0.29383495 -0.0716711 -0.10507667
000010 b7 7c 3c 3e 1b 12 9b be bc 29 c7 bd bc 22 ef bd
       0.1840695 -0.3028725 -0.09724757 -0.11676547
000020 2f 5b e3 3d 3b 3d a6 3d b1 c6 9d 3e 0b 0f 2a 3e
       0.11101376 0.081171475 0.30815652 0.16607301
000030 6b 0e 8c be 5d b1 27 be d5 0f 88 ba 52 35 28 3c
       -0.2735475 -0.16376252 -0.0010380695 0.010266619
000040 2e 21 ac bd 62 f7 1a be 72 d2 6e 3e e3 0f ad be
       -0.08404766 -0.15133432 0.23322466 -0.33801183
000050 15 0e 86 3a df f4 39 be 9a 97 99 be 3b 5d ae bc
       0.0010227585 -0.18159817 -0.29998475 -0.02128469
000060 17 b5 1b bd a9 5e e2 bd ac ec af be 88 e5 25 bd
       -0.038014498 -0.11053211 -0.34360254 -0.0405021
000070 49 ac f2 bd c4 86 95 be 24 6c c1 3d 93 7c 5d 3e
       -0.11849267 -0.2920438 0.09444454 0.21629553
000080 a5 99 87 be 66 37 30 3e 7a 0d 0e 3d 12 9f b0 be
       -0.2648441 0.17208633 0.03468082 -0.3449636
000090 5c 8a 31 be e7 82 55 3e 33 4f b9 3e 66 86 97 bd
       -0.17337936 0.20850717 0.36193237 -0.07398681
0000a0 be 62 a0 be da 1c 26 bb 5a fe a7 3d 0b ea bb 3d
       -0.31325334 -0.0025346787 0.082028106 0.091754995
0000b0 d1 f6 7e be 08 bc a0 bd e4 55 75 bd ce 27 15 3e
       -0.2489884 -0.07848364 -0.059896365 0.14565966
0000c0 fa 1d 1d 3e 77 cd 38 3d 33 60 0a be 89 76 e4 3d
       0.15343466 0.04511782 -0.1351326 0.11155421
0000d0 7a 4e e1 bb ab 13 a0 3e d4 c4 d0 3d 39 3e 73 3e
       -0.00687581 0.31265005 0.10193792 0.23754205
0000e0 24 13 de 3e 2a 9a 24 3e 9e 51 74 3e 31 65 a9 3d
       0.43373978 0.16074434 0.2385926 0.08271254
0000f0 87 92 82 bd cf 8e 3c bd c2 ac dc 3c 2a 62 b9 bc
       -0.06375604 -0.04603463 0.026937846 -0.022629816
